…
I0429 19:35:27.919131 11879 solver.cpp:70] Creating training net from net file: Acre/ac_train_test.prototxt
I0429 19:35:27.919809 11879 net.cpp:287] The NetState phase (0) differed from the phase (1) specified by a rule in layer data
I0429 19:35:27.920058 11879 net.cpp:42] Initializing net from parameters: 
name: "ac_re"
state {
  phase: TRAIN
}
layer {
  name: "data"
  type: "Data"
  top: "data"
  top: "label"
  include {
    phase: TRAIN
  }
  transform_param {
    crop_size: 227
    mean_value: 103.939
  }
  data_param {
    source: "Acre/Acre_train_lmdb"
    batch_size: 32
    backend: LMDB
  }
}
layer {
  name: "conv1"
  type: "Convolution"
  bottom: "data"
  top: "conv1"
  param {
    lr_mult: 1
    decay_mult: 1
  }
  param {
    lr_mult: 2
    decay_mult: 0
  }
  convolution_param {
    num_output: 96
    kernel_size: 11
    stride: 2
    weight_filler {
      type: "gaussian"
      std: 0.01
    }
    bias_filler {
      type: "constant"
      value: 0.1
    }
  }
}
layer {
  name: "relu1"
  type: "ReLU"
  bottom: "conv1"
  top: "conv1"
}
layer {
  name: "pool1"
  type: "Pooling"
  bottom: "conv1"
  top: "pool1"
  pooling_param {
    pool: MAX
    kernel_size: 3
    stride: 2
  }
}
layer {
  name: "norm1"
  type: "LRN"
  bottom: "pool1"
  top: "norm1"
  lrn_param {
    local_size: 5
    alpha: 0.0001
    beta: 0.75
  }
}
layer {
  name: "conv2"
  type: "Convolution"
  bottom: "norm1"
  top: "conv2"
  param {
    lr_mult: 1
    decay_mult: 1
  }
  param {
    lr_mult: 2
    decay_mult: 0
  }
  convolution_param {
    num_output: 384
    kernel_size: 7
    group: 2
    stride: 2
    weight_filler {
      type: "gaussian"
      std: 0.01
    }
    bias_filler {
      type: "constant"
      value: 1
    }
  }
}
layer {
  name: "relu2"
  type: "ReLU"
  bottom: "conv2"
  top: "conv2"
}
layer {
  name: "pool2"
  type: "Pooling"
  bottom: "conv2"
  top: "pool2"
  pooling_param {
    pool: MAX
    kernel_size: 3
    stride: 2
  }
}
layer {
  name: "norm2"
  type: "LRN"
  bottom: "pool2"
  top: "norm2"
  lrn_param {
    local_size: 5
    alpha: 0.0001
    beta: 0.75
  }
}
layer {
  name: "conv3"
  type: "Convolution"
  bottom: "norm2"
  top: "conv3"
  param {
    lr_mult: 1
    decay_mult: 1
  }
  param {
    lr_mult: 2
    decay_mult: 0
  }
  convolution_param {
    num_output: 512
    pad: 1
    kernel_size: 5
    weight_filler {
      type: "gaussian"
      std: 0.01
    }
    bias_filler {
      type: "constant"
      value: 0.1
    }
  }
}
layer {
  name: "relu3"
  type: "ReLU"
  bottom: "conv3"
  top: "conv3"
}
layer {
  name: "conv4"
  type: "Convolution"
  bottom: "conv3"
  top: "conv4"
  param {
    lr_mult: 1
    decay_mult: 1
  }
  param {
    lr_mult: 2
    decay_mult: 0
  }
  convolution_param {
    num_output: 512
    pad: 1
    kernel_size: 5
    group: 2
    weight_filler {
      type: "gaussian"
      std: 0.01
    }
    bias_filler {
      type: "constant"
      value: 0.1
    }
  }
}
layer {
  name: "relu4"
  type: "ReLU"
  bottom: "conv4"
  top: "conv4"
}
layer {
  name: "conv5"
  type: "Convolution"
  bottom: "conv4"
  top: "conv5"
  param {
    lr_mult: 1
    decay_mult: 1
  }
  param {
    lr_mult: 2
    decay_mult: 0
  }
  convolution_param {
    num_output: 384
    pad: 1
    kernel_size: 3
    group: 2
    weight_filler {
      type: "gaussian"
      std: 0.01
    }
    bias_filler {
      type: "constant"
      value: 0.1
    }
  }
}
layer {
  name: "relu5"
  type: "ReLU"
  bottom: "conv5"
  top: "conv5"
}
layer {
  name: "pool5"
  type: "Pooling"
  bottom: "conv5"
  top: "pool5"
  pooling_param {
    pool: MAX
    kernel_size: 3
    stride: 2
  }
}
layer {
  name: "fc6"
  type: "InnerProduct"
  bottom: "pool5"
  top: "fc6"
  param {
    lr_mult: 1
    decay_mult: 1
  }
  param {
    lr_mult: 2
    decay_mult: 0
  }
  inner_product_param {
    num_output: 128
    weight_filler {
      type: "gaussian"
      std: 0.01
    }
    bias_filler {
      type: "constant"
      value: 0.1
    }
  }
}
layer {
  name: "relu6"
  type: "ReLU"
  bottom: "fc6"
  top: "fc6"
}
layer {
  name: "drop6"
  type: "Dropout"
  bottom: "fc6"
  top: "fc6"
  dropout_param {
    dropout_ratio: 0.5
  }
}
layer {
  name: "fc7"
  type: "InnerProduct"
  bottom: "fc6"
  top: "fc7"
  param {
    lr_mult: 1
    decay_mult: 1
  }
  param {
    lr_mult: 2
    decay_mult: 0
  }
  inner_product_param {
    num_output: 64
    weight_filler {
      type: "gaussian"
      std: 0.01
    }
    bias_filler {
      type: "constant"
      value: 0.1
    }
  }
}
layer {
  name: "relu7"
  type: "ReLU"
  bottom: "fc7"
  top: "fc7"
}
layer {
  name: "drop7"
  type: "Dropout"
  bottom: "fc7"
  top: "fc7"
  dropout_param {
    dropout_ratio: 0.5
  }
}
layer {
  name: "fc8-ucf"
  type: "InnerProduct"
  bottom: "fc7"
  top: "fc8-ucf"
  param {
    lr_mult: 10
    decay_mult: 1
  }
  param {
    lr_mult: 20
    decay_mult: 0
  }
  inner_product_param {
    num_output: 10
    weight_filler {
      type: "gaussian"
      std: 0.01
    }
    bias_filler {
      type: "constant"
      value: 0
    }
  }
}
layer {
  name: "loss"
  type: "SoftmaxWithLoss"
  bottom: "fc8-ucf"
  bottom: "label"
  top: "loss"
}
layer {
  name: "accuracy"
  type: "Accuracy"
  bottom: "fc8-ucf"
  bottom: "label"
  top: "accuracy"
}
I0429 19:35:27.920302 11879 layer_factory.hpp:74] Creating layer data
I0429 19:35:27.920336 11879 net.cpp:90] Creating Layer data
I0429 19:35:27.920382 11879 net.cpp:368] data -> data
I0429 19:35:27.920426 11879 net.cpp:368] data -> label
I0429 19:35:27.920450 11879 net.cpp:120] Setting up data
I0429 19:35:27.920919 11879 db_lmdb.cpp:22] Opened lmdb Acre/Acre_train_lmdb
I0429 19:35:27.921953 11879 data_layer.cpp:52] output data size: 32,12,227,227
I0429 19:35:27.997336 11879 net.cpp:127] Top shape: 32 12 227 227 (19787136)
I0429 19:35:27.997364 11879 net.cpp:127] Top shape: 32 (32)
I0429 19:35:27.997378 11879 layer_factory.hpp:74] Creating layer label_data_1_split
I0429 19:35:27.997398 11879 net.cpp:90] Creating Layer label_data_1_split
I0429 19:35:27.997433 11879 net.cpp:410] label_data_1_split <- label
I0429 19:35:27.997483 11879 net.cpp:368] label_data_1_split -> label_data_1_split_0
I0429 19:35:27.997505 11879 net.cpp:368] label_data_1_split -> label_data_1_split_1
I0429 19:35:27.997521 11879 net.cpp:120] Setting up label_data_1_split
I0429 19:35:27.997558 11879 net.cpp:127] Top shape: 32 (32)
I0429 19:35:27.997570 11879 net.cpp:127] Top shape: 32 (32)
I0429 19:35:27.997578 11879 layer_factory.hpp:74] Creating layer conv1
I0429 19:35:27.997604 11879 net.cpp:90] Creating Layer conv1
I0429 19:35:27.997616 11879 net.cpp:410] conv1 <- data
I0429 19:35:27.997630 11879 net.cpp:368] conv1 -> conv1
I0429 19:35:27.997673 11879 net.cpp:120] Setting up conv1
I0429 19:35:29.889698 11879 net.cpp:127] Top shape: 32 96 109 109 (36498432)
I0429 19:35:29.889741 11879 layer_factory.hpp:74] Creating layer relu1
I0429 19:35:29.889757 11879 net.cpp:90] Creating Layer relu1
I0429 19:35:29.889766 11879 net.cpp:410] relu1 <- conv1
I0429 19:35:29.889780 11879 net.cpp:357] relu1 -> conv1 (in-place)
I0429 19:35:29.889793 11879 net.cpp:120] Setting up relu1
I0429 19:35:29.889920 11879 net.cpp:127] Top shape: 32 96 109 109 (36498432)
I0429 19:35:29.889935 11879 layer_factory.hpp:74] Creating layer pool1
I0429 19:35:29.889952 11879 net.cpp:90] Creating Layer pool1
I0429 19:35:29.889960 11879 net.cpp:410] pool1 <- conv1
I0429 19:35:29.889971 11879 net.cpp:368] pool1 -> pool1
I0429 19:35:29.889983 11879 net.cpp:120] Setting up pool1
I0429 19:35:29.890302 11879 net.cpp:127] Top shape: 32 96 54 54 (8957952)
I0429 19:35:29.890317 11879 layer_factory.hpp:74] Creating layer norm1
I0429 19:35:29.890331 11879 net.cpp:90] Creating Layer norm1
I0429 19:35:29.890337 11879 net.cpp:410] norm1 <- pool1
I0429 19:35:29.890347 11879 net.cpp:368] norm1 -> norm1
I0429 19:35:29.890386 11879 net.cpp:120] Setting up norm1
I0429 19:35:29.890404 11879 net.cpp:127] Top shape: 32 96 54 54 (8957952)
I0429 19:35:29.890411 11879 layer_factory.hpp:74] Creating layer conv2
I0429 19:35:29.890425 11879 net.cpp:90] Creating Layer conv2
I0429 19:35:29.890432 11879 net.cpp:410] conv2 <- norm1
I0429 19:35:29.890444 11879 net.cpp:368] conv2 -> conv2
I0429 19:35:29.890456 11879 net.cpp:120] Setting up conv2
I0429 19:35:29.942246 11879 net.cpp:127] Top shape: 32 384 24 24 (7077888)
I0429 19:35:29.942293 11879 layer_factory.hpp:74] Creating layer relu2
I0429 19:35:29.942309 11879 net.cpp:90] Creating Layer relu2
I0429 19:35:29.942318 11879 net.cpp:410] relu2 <- conv2
I0429 19:35:29.942330 11879 net.cpp:357] relu2 -> conv2 (in-place)
I0429 19:35:29.942343 11879 net.cpp:120] Setting up relu2
I0429 19:35:29.942467 11879 net.cpp:127] Top shape: 32 384 24 24 (7077888)
I0429 19:35:29.942479 11879 layer_factory.hpp:74] Creating layer pool2
I0429 19:35:29.942494 11879 net.cpp:90] Creating Layer pool2
I0429 19:35:29.942502 11879 net.cpp:410] pool2 <- conv2
I0429 19:35:29.942512 11879 net.cpp:368] pool2 -> pool2
I0429 19:35:29.942524 11879 net.cpp:120] Setting up pool2
I0429 19:35:29.942656 11879 net.cpp:127] Top shape: 32 384 12 12 (1769472)
I0429 19:35:29.942668 11879 layer_factory.hpp:74] Creating layer norm2
I0429 19:35:29.942682 11879 net.cpp:90] Creating Layer norm2
I0429 19:35:29.942690 11879 net.cpp:410] norm2 <- pool2
I0429 19:35:29.942699 11879 net.cpp:368] norm2 -> norm2
I0429 19:35:29.942711 11879 net.cpp:120] Setting up norm2
I0429 19:35:29.942723 11879 net.cpp:127] Top shape: 32 384 12 12 (1769472)
I0429 19:35:29.942731 11879 layer_factory.hpp:74] Creating layer conv3
I0429 19:35:29.942747 11879 net.cpp:90] Creating Layer conv3
I0429 19:35:29.942755 11879 net.cpp:410] conv3 <- norm2
I0429 19:35:29.942765 11879 net.cpp:368] conv3 -> conv3
I0429 19:35:29.942780 11879 net.cpp:120] Setting up conv3
I0429 19:35:30.279909 11879 net.cpp:127] Top shape: 32 512 10 10 (1638400)
I0429 19:35:30.279952 11879 layer_factory.hpp:74] Creating layer relu3
I0429 19:35:30.279966 11879 net.cpp:90] Creating Layer relu3
I0429 19:35:30.279975 11879 net.cpp:410] relu3 <- conv3
I0429 19:35:30.279988 11879 net.cpp:357] relu3 -> conv3 (in-place)
I0429 19:35:30.280000 11879 net.cpp:120] Setting up relu3
I0429 19:35:30.280128 11879 net.cpp:127] Top shape: 32 512 10 10 (1638400)
I0429 19:35:30.280143 11879 layer_factory.hpp:74] Creating layer conv4
I0429 19:35:30.280158 11879 net.cpp:90] Creating Layer conv4
I0429 19:35:30.280165 11879 net.cpp:410] conv4 <- conv3
I0429 19:35:30.280179 11879 net.cpp:368] conv4 -> conv4
I0429 19:35:30.280192 11879 net.cpp:120] Setting up conv4
I0429 19:35:30.465682 11879 net.cpp:127] Top shape: 32 512 8 8 (1048576)
I0429 19:35:30.465718 11879 layer_factory.hpp:74] Creating layer relu4
I0429 19:35:30.465734 11879 net.cpp:90] Creating Layer relu4
I0429 19:35:30.465744 11879 net.cpp:410] relu4 <- conv4
I0429 19:35:30.465755 11879 net.cpp:357] relu4 -> conv4 (in-place)
I0429 19:35:30.465769 11879 net.cpp:120] Setting up relu4
I0429 19:35:30.466074 11879 net.cpp:127] Top shape: 32 512 8 8 (1048576)
I0429 19:35:30.466089 11879 layer_factory.hpp:74] Creating layer conv5
I0429 19:35:30.466105 11879 net.cpp:90] Creating Layer conv5
I0429 19:35:30.466114 11879 net.cpp:410] conv5 <- conv4
I0429 19:35:30.466125 11879 net.cpp:368] conv5 -> conv5
I0429 19:35:30.466137 11879 net.cpp:120] Setting up conv5
I0429 19:35:30.516612 11879 net.cpp:127] Top shape: 32 384 8 8 (786432)
I0429 19:35:30.516651 11879 layer_factory.hpp:74] Creating layer relu5
I0429 19:35:30.516667 11879 net.cpp:90] Creating Layer relu5
I0429 19:35:30.516676 11879 net.cpp:410] relu5 <- conv5
I0429 19:35:30.516691 11879 net.cpp:357] relu5 -> conv5 (in-place)
I0429 19:35:30.516705 11879 net.cpp:120] Setting up relu5
I0429 19:35:30.516834 11879 net.cpp:127] Top shape: 32 384 8 8 (786432)
I0429 19:35:30.516846 11879 layer_factory.hpp:74] Creating layer pool5
I0429 19:35:30.516863 11879 net.cpp:90] Creating Layer pool5
I0429 19:35:30.516870 11879 net.cpp:410] pool5 <- conv5
I0429 19:35:30.516907 11879 net.cpp:368] pool5 -> pool5
I0429 19:35:30.516921 11879 net.cpp:120] Setting up pool5
I0429 19:35:30.517046 11879 net.cpp:127] Top shape: 32 384 4 4 (196608)
I0429 19:35:30.517060 11879 layer_factory.hpp:74] Creating layer fc6
I0429 19:35:30.517081 11879 net.cpp:90] Creating Layer fc6
I0429 19:35:30.517089 11879 net.cpp:410] fc6 <- pool5
I0429 19:35:30.517101 11879 net.cpp:368] fc6 -> fc6
I0429 19:35:30.517117 11879 net.cpp:120] Setting up fc6
I0429 19:35:30.561417 11879 net.cpp:127] Top shape: 32 128 (4096)
I0429 19:35:30.561477 11879 layer_factory.hpp:74] Creating layer relu6
I0429 19:35:30.561525 11879 net.cpp:90] Creating Layer relu6
I0429 19:35:30.561537 11879 net.cpp:410] relu6 <- fc6
I0429 19:35:30.561553 11879 net.cpp:357] relu6 -> fc6 (in-place)
I0429 19:35:30.561566 11879 net.cpp:120] Setting up relu6
I0429 19:35:30.561727 11879 net.cpp:127] Top shape: 32 128 (4096)
I0429 19:35:30.561739 11879 layer_factory.hpp:74] Creating layer drop6
I0429 19:35:30.561764 11879 net.cpp:90] Creating Layer drop6
I0429 19:35:30.561770 11879 net.cpp:410] drop6 <- fc6
I0429 19:35:30.561784 11879 net.cpp:357] drop6 -> fc6 (in-place)
I0429 19:35:30.561800 11879 net.cpp:120] Setting up drop6
I0429 19:35:30.561820 11879 net.cpp:127] Top shape: 32 128 (4096)
I0429 19:35:30.561828 11879 layer_factory.hpp:74] Creating layer fc7
I0429 19:35:30.561841 11879 net.cpp:90] Creating Layer fc7
I0429 19:35:30.561847 11879 net.cpp:410] fc7 <- fc6
I0429 19:35:30.561861 11879 net.cpp:368] fc7 -> fc7
I0429 19:35:30.561877 11879 net.cpp:120] Setting up fc7
I0429 19:35:30.562362 11879 net.cpp:127] Top shape: 32 64 (2048)
I0429 19:35:30.562377 11879 layer_factory.hpp:74] Creating layer relu7
I0429 19:35:30.562391 11879 net.cpp:90] Creating Layer relu7
I0429 19:35:30.562397 11879 net.cpp:410] relu7 <- fc7
I0429 19:35:30.562407 11879 net.cpp:357] relu7 -> fc7 (in-place)
I0429 19:35:30.562417 11879 net.cpp:120] Setting up relu7
I0429 19:35:30.562815 11879 net.cpp:127] Top shape: 32 64 (2048)
I0429 19:35:30.562830 11879 layer_factory.hpp:74] Creating layer drop7
I0429 19:35:30.562844 11879 net.cpp:90] Creating Layer drop7
I0429 19:35:30.562852 11879 net.cpp:410] drop7 <- fc7
I0429 19:35:30.562862 11879 net.cpp:357] drop7 -> fc7 (in-place)
I0429 19:35:30.562872 11879 net.cpp:120] Setting up drop7
I0429 19:35:30.562885 11879 net.cpp:127] Top shape: 32 64 (2048)
I0429 19:35:30.562891 11879 layer_factory.hpp:74] Creating layer fc8-ucf
I0429 19:35:30.562903 11879 net.cpp:90] Creating Layer fc8-ucf
I0429 19:35:30.562909 11879 net.cpp:410] fc8-ucf <- fc7
I0429 19:35:30.562922 11879 net.cpp:368] fc8-ucf -> fc8-ucf
I0429 19:35:30.562938 11879 net.cpp:120] Setting up fc8-ucf
I0429 19:35:30.562997 11879 net.cpp:127] Top shape: 32 10 (320)
I0429 19:35:30.563014 11879 layer_factory.hpp:74] Creating layer fc8-ucf_fc8-ucf_0_split
I0429 19:35:30.563024 11879 net.cpp:90] Creating Layer fc8-ucf_fc8-ucf_0_split
I0429 19:35:30.563031 11879 net.cpp:410] fc8-ucf_fc8-ucf_0_split <- fc8-ucf
I0429 19:35:30.563042 11879 net.cpp:368] fc8-ucf_fc8-ucf_0_split -> fc8-ucf_fc8-ucf_0_split_0
I0429 19:35:30.563055 11879 net.cpp:368] fc8-ucf_fc8-ucf_0_split -> fc8-ucf_fc8-ucf_0_split_1
I0429 19:35:30.563066 11879 net.cpp:120] Setting up fc8-ucf_fc8-ucf_0_split
I0429 19:35:30.563076 11879 net.cpp:127] Top shape: 32 10 (320)
I0429 19:35:30.563086 11879 net.cpp:127] Top shape: 32 10 (320)
I0429 19:35:30.563092 11879 layer_factory.hpp:74] Creating layer loss
I0429 19:35:30.563105 11879 net.cpp:90] Creating Layer loss
I0429 19:35:30.563112 11879 net.cpp:410] loss <- fc8-ucf_fc8-ucf_0_split_0
I0429 19:35:30.563122 11879 net.cpp:410] loss <- label_data_1_split_0
I0429 19:35:30.563130 11879 net.cpp:368] loss -> loss
I0429 19:35:30.563143 11879 net.cpp:120] Setting up loss
I0429 19:35:30.563163 11879 layer_factory.hpp:74] Creating layer loss
…
I0429 19:35:30.564757 11879 solver.cpp:154] Creating test net (#0) specified by net file: Acre/ac_train_test.prototxt
I0429 19:35:30.564826 11879 net.cpp:287] The NetState phase (1) differed from the phase (0) specified by a rule in layer data
I0429 19:35:30.565186 11879 net.cpp:42] Initializing net from parameters: 
name: "ac_re"
state {
  phase: TEST
}
layer {
  name: "data"
  type: "Data"
  top: "data"
  top: "label"
  include {
    phase: TEST
  }
  transform_param {
    mirror: false
    crop_size: 227
    mean_value: 103.939
  }
  data_param {
    source: "Acre/Acre_test_lmdb"
    batch_size: 64
    backend: LMDB
  }
}
layer {
  name: "conv1"
  type: "Convolution"
  bottom: "data"
  top: "conv1"
  param {
    lr_mult: 1
    decay_mult: 1
  }
  param {
    lr_mult: 2
    decay_mult: 0
  }
  convolution_param {
    num_output: 96
    kernel_size: 11
    stride: 2
    weight_filler {
      type: "gaussian"
      std: 0.01
    }
    bias_filler {
      type: "constant"
      value: 0.1
    }
  }
}
layer {
  name: "relu1"
  type: "ReLU"
  bottom: "conv1"
  top: "conv1"
}
layer {
  name: "pool1"
  type: "Pooling"
  bottom: "conv1"
  top: "pool1"
  pooling_param {
    pool: MAX
    kernel_size: 3
    stride: 2
  }
}
layer {
  name: "norm1"
  type: "LRN"
  bottom: "pool1"
  top: "norm1"
  lrn_param {
    local_size: 5
    alpha: 0.0001
    beta: 0.75
  }
}
layer {
  name: "conv2"
  type: "Convolution"
  bottom: "norm1"
  top: "conv2"
  param {
    lr_mult: 1
    decay_mult: 1
  }
  param {
    lr_mult: 2
    decay_mult: 0
  }
  convolution_param {
    num_output: 384
    kernel_size: 7
    group: 2
    stride: 2
    weight_filler {
      type: "gaussian"
      std: 0.01
    }
    bias_filler {
      type: "constant"
      value: 1
    }
  }
}
layer {
  name: "relu2"
  type: "ReLU"
  bottom: "conv2"
  top: "conv2"
}
layer {
  name: "pool2"
  type: "Pooling"
  bottom: "conv2"
  top: "pool2"
  pooling_param {
    pool: MAX
    kernel_size: 3
    stride: 2
  }
}
layer {
  name: "norm2"
  type: "LRN"
  bottom: "pool2"
  top: "norm2"
  lrn_param {
    local_size: 5
    alpha: 0.0001
    beta: 0.75
  }
}
layer {
  name: "conv3"
  type: "Convolution"
  bottom: "norm2"
  top: "conv3"
  param {
    lr_mult: 1
    decay_mult: 1
  }
  param {
    lr_mult: 2
    decay_mult: 0
  }
  convolution_param {
    num_output: 512
    pad: 1
    kernel_size: 5
    weight_filler {
      type: "gaussian"
      std: 0.01
    }
    bias_filler {
      type: "constant"
      value: 0.1
    }
  }
}
layer {
  name: "relu3"
  type: "ReLU"
  bottom: "conv3"
  top: "conv3"
}
layer {
  name: "conv4"
  type: "Convolution"
  bottom: "conv3"
  top: "conv4"
  param {
    lr_mult: 1
    decay_mult: 1
  }
  param {
    lr_mult: 2
    decay_mult: 0
  }
  convolution_param {
    num_output: 512
    pad: 1
    kernel_size: 5
    group: 2
    weight_filler {
      type: "gaussian"
      std: 0.01
    }
    bias_filler {
      type: "constant"
      value: 0.1
    }
  }
}
layer {
  name: "relu4"
  type: "ReLU"
  bottom: "conv4"
  top: "conv4"
}
layer {
  name: "conv5"
  type: "Convolution"
  bottom: "conv4"
  top: "conv5"
  param {
    lr_mult: 1
    decay_mult: 1
  }
  param {
    lr_mult: 2
    decay_mult: 0
  }
  convolution_param {
    num_output: 384
    pad: 1
    kernel_size: 3
    group: 2
    weight_filler {
      type: "gaussian"
      std: 0.01
    }
    bias_filler {
      type: "constant"
      value: 0.1
    }
  }
}
layer {
  name: "relu5"
  type: "ReLU"
  bottom: "conv5"
  top: "conv5"
}
layer {
  name: "pool5"
  type: "Pooling"
  bottom: "conv5"
  top: "pool5"
  pooling_param {
    pool: MAX
    kernel_size: 3
    stride: 2
  }
}
layer {
  name: "fc6"
  type: "InnerProduct"
  bottom: "pool5"
  top: "fc6"
  param {
    lr_mult: 1
    decay_mult: 1
  }
  param {
    lr_mult: 2
    decay_mult: 0
  }
  inner_product_param {
    num_output: 128
    weight_filler {
      type: "gaussian"
      std: 0.01
    }
    bias_filler {
      type: "constant"
      value: 0.1
    }
  }
}
layer {
  name: "relu6"
  type: "ReLU"
  bottom: "fc6"
  top: "fc6"
}
layer {
  name: "drop6"
  type: "Dropout"
  bottom: "fc6"
  top: "fc6"
  dropout_param {
    dropout_ratio: 0.5
  }
}
layer {
  name: "fc7"
  type: "InnerProduct"
  bottom: "fc6"
  top: "fc7"
  param {
    lr_mult: 1
    decay_mult: 1
  }
  param {
    lr_mult: 2
    decay_mult: 0
  }
  inner_product_param {
    num_output: 64
    weight_filler {
      type: "gaussian"
      std: 0.01
    }
    bias_filler {
      type: "constant"
      value: 0.1
    }
  }
}
layer {
  name: "relu7"
  type: "ReLU"
  bottom: "fc7"
  top: "fc7"
}
layer {
  name: "drop7"
  type: "Dropout"
  bottom: "fc7"
  top: "fc7"
  dropout_param {
    dropout_ratio: 0.5
  }
}
layer {
  name: "fc8-ucf"
  type: "InnerProduct"
  bottom: "fc7"
  top: "fc8-ucf"
  param {
    lr_mult: 10
    decay_mult: 1
  }
  param {
    lr_mult: 20
    decay_mult: 0
  }
  inner_product_param {
    num_output: 10
    weight_filler {
      type: "gaussian"
      std: 0.01
    }
    bias_filler {
      type: "constant"
      value: 0
    }
  }
}
layer {
  name: "loss"
  type: "SoftmaxWithLoss"
  bottom: "fc8-ucf"
  bottom: "label"
  top: "loss"
}
layer {
  name: "accuracy"
  type: "Accuracy"
  bottom: "fc8-ucf"
  bottom: "label"
  top: "accuracy"
}
I0429 19:35:30.565382 11879 layer_factory.hpp:74] Creating layer data
I0429 19:35:30.565410 11879 net.cpp:90] Creating Layer data
I0429 19:35:30.565421 11879 net.cpp:368] data -> data
I0429 19:35:30.565436 11879 net.cpp:368] data -> label
I0429 19:35:30.565448 11879 net.cpp:120] Setting up data
I0429 19:35:30.581334 11879 db_lmdb.cpp:22] Opened lmdb Acre/Acre_test_lmdb
I0429 19:35:30.582767 11879 data_layer.cpp:52] output data size: 64,12,227,227
I0429 19:35:30.712388 11879 net.cpp:127] Top shape: 64 12 227 227 (39574272)
I0429 19:35:30.712447 11879 net.cpp:127] Top shape: 64 (64)
I0429 19:35:30.712465 11879 layer_factory.hpp:74] Creating layer label_data_1_split
I0429 19:35:30.712492 11879 net.cpp:90] Creating Layer label_data_1_split
I0429 19:35:30.712503 11879 net.cpp:410] label_data_1_split <- label
I0429 19:35:30.712523 11879 net.cpp:368] label_data_1_split -> label_data_1_split_0
I0429 19:35:30.712558 11879 net.cpp:368] label_data_1_split -> label_data_1_split_1
I0429 19:35:30.712570 11879 net.cpp:120] Setting up label_data_1_split
I0429 19:35:30.712589 11879 net.cpp:127] Top shape: 64 (64)
I0429 19:35:30.712597 11879 net.cpp:127] Top shape: 64 (64)
I0429 19:35:30.712605 11879 layer_factory.hpp:74] Creating layer conv1
I0429 19:35:30.712632 11879 net.cpp:90] Creating Layer conv1
I0429 19:35:30.712641 11879 net.cpp:410] conv1 <- data
I0429 19:35:30.712651 11879 net.cpp:368] conv1 -> conv1
I0429 19:35:30.712666 11879 net.cpp:120] Setting up conv1
I0429 19:35:30.721351 11879 net.cpp:127] Top shape: 64 96 109 109 (72996864)
I0429 19:35:30.721410 11879 layer_factory.hpp:74] Creating layer relu1
I0429 19:35:30.721433 11879 net.cpp:90] Creating Layer relu1
I0429 19:35:30.721444 11879 net.cpp:410] relu1 <- conv1
I0429 19:35:30.721462 11879 net.cpp:357] relu1 -> conv1 (in-place)
I0429 19:35:30.721479 11879 net.cpp:120] Setting up relu1
I0429 19:35:30.721597 11879 net.cpp:127] Top shape: 64 96 109 109 (72996864)
I0429 19:35:30.721611 11879 layer_factory.hpp:74] Creating layer pool1
I0429 19:35:30.721626 11879 net.cpp:90] Creating Layer pool1
I0429 19:35:30.721632 11879 net.cpp:410] pool1 <- conv1
I0429 19:35:30.721643 11879 net.cpp:368] pool1 -> pool1
I0429 19:35:30.721655 11879 net.cpp:120] Setting up pool1
I0429 19:35:30.721781 11879 net.cpp:127] Top shape: 64 96 54 54 (17915904)
I0429 19:35:30.721793 11879 layer_factory.hpp:74] Creating layer norm1
I0429 19:35:30.721812 11879 net.cpp:90] Creating Layer norm1
I0429 19:35:30.721820 11879 net.cpp:410] norm1 <- pool1
I0429 19:35:30.721830 11879 net.cpp:368] norm1 -> norm1
I0429 19:35:30.721844 11879 net.cpp:120] Setting up norm1
I0429 19:35:30.721858 11879 net.cpp:127] Top shape: 64 96 54 54 (17915904)
I0429 19:35:30.721866 11879 layer_factory.hpp:74] Creating layer conv2
I0429 19:35:30.721884 11879 net.cpp:90] Creating Layer conv2
I0429 19:35:30.721890 11879 net.cpp:410] conv2 <- norm1
I0429 19:35:30.721901 11879 net.cpp:368] conv2 -> conv2
I0429 19:35:30.721914 11879 net.cpp:120] Setting up conv2
I0429 19:35:30.774525 11879 net.cpp:127] Top shape: 64 384 24 24 (14155776)
I0429 19:35:30.774565 11879 layer_factory.hpp:74] Creating layer relu2
I0429 19:35:30.774581 11879 net.cpp:90] Creating Layer relu2
I0429 19:35:30.774590 11879 net.cpp:410] relu2 <- conv2
I0429 19:35:30.774602 11879 net.cpp:357] relu2 -> conv2 (in-place)
I0429 19:35:30.774616 11879 net.cpp:120] Setting up relu2
I0429 19:35:30.774919 11879 net.cpp:127] Top shape: 64 384 24 24 (14155776)
I0429 19:35:30.774932 11879 layer_factory.hpp:74] Creating layer pool2
I0429 19:35:30.774948 11879 net.cpp:90] Creating Layer pool2
I0429 19:35:30.774955 11879 net.cpp:410] pool2 <- conv2
I0429 19:35:30.774966 11879 net.cpp:368] pool2 -> pool2
I0429 19:35:30.774981 11879 net.cpp:120] Setting up pool2
I0429 19:35:30.775101 11879 net.cpp:127] Top shape: 64 384 12 12 (3538944)
I0429 19:35:30.775113 11879 layer_factory.hpp:74] Creating layer norm2
I0429 19:35:30.775125 11879 net.cpp:90] Creating Layer norm2
I0429 19:35:30.775132 11879 net.cpp:410] norm2 <- pool2
I0429 19:35:30.775142 11879 net.cpp:368] norm2 -> norm2
I0429 19:35:30.775154 11879 net.cpp:120] Setting up norm2
I0429 19:35:30.775197 11879 net.cpp:127] Top shape: 64 384 12 12 (3538944)
I0429 19:35:30.775204 11879 layer_factory.hpp:74] Creating layer conv3
I0429 19:35:30.775218 11879 net.cpp:90] Creating Layer conv3
I0429 19:35:30.775225 11879 net.cpp:410] conv3 <- norm2
I0429 19:35:30.775235 11879 net.cpp:368] conv3 -> conv3
I0429 19:35:30.775249 11879 net.cpp:120] Setting up conv3
I0429 19:35:31.055279 11879 net.cpp:127] Top shape: 64 512 10 10 (3276800)
I0429 19:35:31.055316 11879 layer_factory.hpp:74] Creating layer relu3
I0429 19:35:31.055332 11879 net.cpp:90] Creating Layer relu3
I0429 19:35:31.055341 11879 net.cpp:410] relu3 <- conv3
I0429 19:35:31.055353 11879 net.cpp:357] relu3 -> conv3 (in-place)
I0429 19:35:31.055366 11879 net.cpp:120] Setting up relu3
I0429 19:35:31.055480 11879 net.cpp:127] Top shape: 64 512 10 10 (3276800)
I0429 19:35:31.055492 11879 layer_factory.hpp:74] Creating layer conv4
I0429 19:35:31.055506 11879 net.cpp:90] Creating Layer conv4
I0429 19:35:31.055513 11879 net.cpp:410] conv4 <- conv3
I0429 19:35:31.055524 11879 net.cpp:368] conv4 -> conv4
I0429 19:35:31.055536 11879 net.cpp:120] Setting up conv4
I0429 19:35:31.241175 11879 net.cpp:127] Top shape: 64 512 8 8 (2097152)
I0429 19:35:31.241210 11879 layer_factory.hpp:74] Creating layer relu4
I0429 19:35:31.241226 11879 net.cpp:90] Creating Layer relu4
I0429 19:35:31.241235 11879 net.cpp:410] relu4 <- conv4
I0429 19:35:31.241247 11879 net.cpp:357] relu4 -> conv4 (in-place)
I0429 19:35:31.241261 11879 net.cpp:120] Setting up relu4
I0429 19:35:31.241560 11879 net.cpp:127] Top shape: 64 512 8 8 (2097152)
I0429 19:35:31.241575 11879 layer_factory.hpp:74] Creating layer conv5
I0429 19:35:31.241590 11879 net.cpp:90] Creating Layer conv5
I0429 19:35:31.241596 11879 net.cpp:410] conv5 <- conv4
I0429 19:35:31.241608 11879 net.cpp:368] conv5 -> conv5
I0429 19:35:31.241621 11879 net.cpp:120] Setting up conv5
I0429 19:35:31.292996 11879 net.cpp:127] Top shape: 64 384 8 8 (1572864)
I0429 19:35:31.293036 11879 layer_factory.hpp:74] Creating layer relu5
I0429 19:35:31.293051 11879 net.cpp:90] Creating Layer relu5
I0429 19:35:31.293061 11879 net.cpp:410] relu5 <- conv5
I0429 19:35:31.293072 11879 net.cpp:357] relu5 -> conv5 (in-place)
I0429 19:35:31.293084 11879 net.cpp:120] Setting up relu5
I0429 19:35:31.293197 11879 net.cpp:127] Top shape: 64 384 8 8 (1572864)
I0429 19:35:31.293210 11879 layer_factory.hpp:74] Creating layer pool5
I0429 19:35:31.293226 11879 net.cpp:90] Creating Layer pool5
I0429 19:35:31.293232 11879 net.cpp:410] pool5 <- conv5
I0429 19:35:31.293242 11879 net.cpp:368] pool5 -> pool5
I0429 19:35:31.293254 11879 net.cpp:120] Setting up pool5
I0429 19:35:31.293371 11879 net.cpp:127] Top shape: 64 384 4 4 (393216)
I0429 19:35:31.293383 11879 layer_factory.hpp:74] Creating layer fc6
I0429 19:35:31.293396 11879 net.cpp:90] Creating Layer fc6
I0429 19:35:31.293403 11879 net.cpp:410] fc6 <- pool5
I0429 19:35:31.293414 11879 net.cpp:368] fc6 -> fc6
I0429 19:35:31.293426 11879 net.cpp:120] Setting up fc6
I0429 19:35:31.338204 11879 net.cpp:127] Top shape: 64 128 (8192)
I0429 19:35:31.338230 11879 layer_factory.hpp:74] Creating layer relu6
I0429 19:35:31.338243 11879 net.cpp:90] Creating Layer relu6
I0429 19:35:31.338251 11879 net.cpp:410] relu6 <- fc6
I0429 19:35:31.338263 11879 net.cpp:357] relu6 -> fc6 (in-place)
I0429 19:35:31.338274 11879 net.cpp:120] Setting up relu6
I0429 19:35:31.338400 11879 net.cpp:127] Top shape: 64 128 (8192)
I0429 19:35:31.338412 11879 layer_factory.hpp:74] Creating layer drop6
I0429 19:35:31.338423 11879 net.cpp:90] Creating Layer drop6
I0429 19:35:31.338429 11879 net.cpp:410] drop6 <- fc6
I0429 19:35:31.338439 11879 net.cpp:357] drop6 -> fc6 (in-place)
I0429 19:35:31.338449 11879 net.cpp:120] Setting up drop6
I0429 19:35:31.338461 11879 net.cpp:127] Top shape: 64 128 (8192)
I0429 19:35:31.338469 11879 layer_factory.hpp:74] Creating layer fc7
I0429 19:35:31.338480 11879 net.cpp:90] Creating Layer fc7
I0429 19:35:31.338487 11879 net.cpp:410] fc7 <- fc6
I0429 19:35:31.338497 11879 net.cpp:368] fc7 -> fc7
I0429 19:35:31.338536 11879 net.cpp:120] Setting up fc7
I0429 19:35:31.339010 11879 net.cpp:127] Top shape: 64 64 (4096)
I0429 19:35:31.339025 11879 layer_factory.hpp:74] Creating layer relu7
I0429 19:35:31.339035 11879 net.cpp:90] Creating Layer relu7
I0429 19:35:31.339041 11879 net.cpp:410] relu7 <- fc7
I0429 19:35:31.339051 11879 net.cpp:357] relu7 -> fc7 (in-place)
I0429 19:35:31.339061 11879 net.cpp:120] Setting up relu7
I0429 19:35:31.339406 11879 net.cpp:127] Top shape: 64 64 (4096)
I0429 19:35:31.339421 11879 layer_factory.hpp:74] Creating layer drop7
I0429 19:35:31.339432 11879 net.cpp:90] Creating Layer drop7
I0429 19:35:31.339439 11879 net.cpp:410] drop7 <- fc7
I0429 19:35:31.339448 11879 net.cpp:357] drop7 -> fc7 (in-place)
I0429 19:35:31.339459 11879 net.cpp:120] Setting up drop7
I0429 19:35:31.339470 11879 net.cpp:127] Top shape: 64 64 (4096)
I0429 19:35:31.339478 11879 layer_factory.hpp:74] Creating layer fc8-ucf
I0429 19:35:31.339489 11879 net.cpp:90] Creating Layer fc8-ucf
I0429 19:35:31.339496 11879 net.cpp:410] fc8-ucf <- fc7
I0429 19:35:31.339506 11879 net.cpp:368] fc8-ucf -> fc8-ucf
I0429 19:35:31.339521 11879 net.cpp:120] Setting up fc8-ucf
I0429 19:35:31.339576 11879 net.cpp:127] Top shape: 64 10 (640)
I0429 19:35:31.339591 11879 layer_factory.hpp:74] Creating layer fc8-ucf_fc8-ucf_0_split
I0429 19:35:31.339601 11879 net.cpp:90] Creating Layer fc8-ucf_fc8-ucf_0_split
I0429 19:35:31.339608 11879 net.cpp:410] fc8-ucf_fc8-ucf_0_split <- fc8-ucf
I0429 19:35:31.339618 11879 net.cpp:368] fc8-ucf_fc8-ucf_0_split -> fc8-ucf_fc8-ucf_0_split_0
I0429 19:35:31.339629 11879 net.cpp:368] fc8-ucf_fc8-ucf_0_split -> fc8-ucf_fc8-ucf_0_split_1
I0429 19:35:31.339639 11879 net.cpp:120] Setting up fc8-ucf_fc8-ucf_0_split
I0429 19:35:31.339651 11879 net.cpp:127] Top shape: 64 10 (640)
I0429 19:35:31.339660 11879 net.cpp:127] Top shape: 64 10 (640)
I0429 19:35:31.339666 11879 layer_factory.hpp:74] Creating layer loss
I0429 19:35:31.339676 11879 net.cpp:90] Creating Layer loss
I0429 19:35:31.339684 11879 net.cpp:410] loss <- fc8-ucf_fc8-ucf_0_split_0
I0429 19:35:31.339691 11879 net.cpp:410] loss <- label_data_1_split_0
I0429 19:35:31.339700 11879 net.cpp:368] loss -> loss
I0429 19:35:31.339711 11879 net.cpp:120] Setting up loss
I0429 19:35:31.339721 11879 layer_factory.hpp:74] Creating layer loss
…
