…
I0430 09:58:55.349341  1694 solver.cpp:70] Creating training net from net file: Acre/ac_train_test.prototxt
I0430 09:58:55.362071  1694 net.cpp:287] The NetState phase (0) differed from the phase (1) specified by a rule in layer data
I0430 09:58:55.362469  1694 net.cpp:42] Initializing net from parameters: 
name: "ac_re"
state {
  phase: TRAIN
}
layer {
  name: "data"
  type: "Data"
  top: "data"
  top: "label"
  include {
    phase: TRAIN
  }
  transform_param {
    crop_size: 227
    mean_value: 103.939
  }
  data_param {
    source: "Acre/Acre_train_lmdb"
    batch_size: 32
    backend: LMDB
  }
}
layer {
  name: "conv1"
  type: "Convolution"
  bottom: "data"
  top: "conv1"
  param {
    lr_mult: 1
    decay_mult: 1
  }
  param {
    lr_mult: 2
    decay_mult: 0
  }
  convolution_param {
    num_output: 96
    kernel_size: 11
    stride: 2
    weight_filler {
      type: "gaussian"
      std: 0.01
    }
    bias_filler {
      type: "constant"
      value: 0.1
    }
  }
}
layer {
  name: "relu1"
  type: "ReLU"
  bottom: "conv1"
  top: "conv1"
}
layer {
  name: "pool1"
  type: "Pooling"
  bottom: "conv1"
  top: "pool1"
  pooling_param {
    pool: MAX
    kernel_size: 3
    stride: 2
  }
}
layer {
  name: "norm1"
  type: "LRN"
  bottom: "pool1"
  top: "norm1"
  lrn_param {
    local_size: 5
    alpha: 0.0001
    beta: 0.75
  }
}
layer {
  name: "conv2"
  type: "Convolution"
  bottom: "norm1"
  top: "conv2"
  param {
    lr_mult: 1
    decay_mult: 1
  }
  param {
    lr_mult: 2
    decay_mult: 0
  }
  convolution_param {
    num_output: 384
    kernel_size: 7
    group: 2
    stride: 2
    weight_filler {
      type: "gaussian"
      std: 0.01
    }
    bias_filler {
      type: "constant"
      value: 1
    }
  }
}
layer {
  name: "relu2"
  type: "ReLU"
  bottom: "conv2"
  top: "conv2"
}
layer {
  name: "pool2"
  type: "Pooling"
  bottom: "conv2"
  top: "pool2"
  pooling_param {
    pool: MAX
    kernel_size: 3
    stride: 2
  }
}
layer {
  name: "norm2"
  type: "LRN"
  bottom: "pool2"
  top: "norm2"
  lrn_param {
    local_size: 5
    alpha: 0.0001
    beta: 0.75
  }
}
layer {
  name: "conv3"
  type: "Convolution"
  bottom: "norm2"
  top: "conv3"
  param {
    lr_mult: 1
    decay_mult: 1
  }
  param {
    lr_mult: 2
    decay_mult: 0
  }
  convolution_param {
    num_output: 512
    pad: 1
    kernel_size: 5
    weight_filler {
      type: "gaussian"
      std: 0.01
    }
    bias_filler {
      type: "constant"
      value: 0.1
    }
  }
}
layer {
  name: "relu3"
  type: "ReLU"
  bottom: "conv3"
  top: "conv3"
}
layer {
  name: "conv4"
  type: "Convolution"
  bottom: "conv3"
  top: "conv4"
  param {
    lr_mult: 1
    decay_mult: 1
  }
  param {
    lr_mult: 2
    decay_mult: 0
  }
  convolution_param {
    num_output: 512
    pad: 1
    kernel_size: 5
    group: 2
    weight_filler {
      type: "gaussian"
      std: 0.01
    }
    bias_filler {
      type: "constant"
      value: 0.1
    }
  }
}
layer {
  name: "relu4"
  type: "ReLU"
  bottom: "conv4"
  top: "conv4"
}
layer {
  name: "conv5"
  type: "Convolution"
  bottom: "conv4"
  top: "conv5"
  param {
    lr_mult: 1
    decay_mult: 1
  }
  param {
    lr_mult: 2
    decay_mult: 0
  }
  convolution_param {
    num_output: 384
    pad: 1
    kernel_size: 3
    group: 2
    weight_filler {
      type: "gaussian"
      std: 0.01
    }
    bias_filler {
      type: "constant"
      value: 0.1
    }
  }
}
layer {
  name: "relu5"
  type: "ReLU"
  bottom: "conv5"
  top: "conv5"
}
layer {
  name: "pool5"
  type: "Pooling"
  bottom: "conv5"
  top: "pool5"
  pooling_param {
    pool: MAX
    kernel_size: 3
    stride: 2
  }
}
layer {
  name: "fc6"
  type: "InnerProduct"
  bottom: "pool5"
  top: "fc6"
  param {
    lr_mult: 1
    decay_mult: 1
  }
  param {
    lr_mult: 2
    decay_mult: 0
  }
  inner_product_param {
    num_output: 128
    weight_filler {
      type: "gaussian"
      std: 0.01
    }
    bias_filler {
      type: "constant"
      value: 0.1
    }
  }
}
layer {
  name: "relu6"
  type: "ReLU"
  bottom: "fc6"
  top: "fc6"
}
layer {
  name: "drop6"
  type: "Dropout"
  bottom: "fc6"
  top: "fc6"
  dropout_param {
    dropout_ratio: 0.5
  }
}
layer {
  name: "fc7"
  type: "InnerProduct"
  bottom: "fc6"
  top: "fc7"
  param {
    lr_mult: 1
    decay_mult: 1
  }
  param {
    lr_mult: 2
    decay_mult: 0
  }
  inner_product_param {
    num_output: 64
    weight_filler {
      type: "gaussian"
      std: 0.01
    }
    bias_filler {
      type: "constant"
      value: 0.1
    }
  }
}
layer {
  name: "relu7"
  type: "ReLU"
  bottom: "fc7"
  top: "fc7"
}
layer {
  name: "drop7"
  type: "Dropout"
  bottom: "fc7"
  top: "fc7"
  dropout_param {
    dropout_ratio: 0.5
  }
}
layer {
  name: "fc8-ucf"
  type: "InnerProduct"
  bottom: "fc7"
  top: "fc8-ucf"
  param {
    lr_mult: 10
    decay_mult: 1
  }
  param {
    lr_mult: 20
    decay_mult: 0
  }
  inner_product_param {
    num_output: 10
    weight_filler {
      type: "gaussian"
      std: 0.01
    }
    bias_filler {
      type: "constant"
      value: 0
    }
  }
}
layer {
  name: "loss"
  type: "SoftmaxWithLoss"
  bottom: "fc8-ucf"
  bottom: "label"
  top: "loss"
}
layer {
  name: "accuracy"
  type: "Accuracy"
  bottom: "fc8-ucf"
  bottom: "label"
  top: "accuracy"
}
I0430 09:58:55.362720  1694 layer_factory.hpp:74] Creating layer data
I0430 09:58:55.362752  1694 net.cpp:90] Creating Layer data
I0430 09:58:55.362767  1694 net.cpp:368] data -> data
I0430 09:58:55.362813  1694 net.cpp:368] data -> label
I0430 09:58:55.362844  1694 net.cpp:120] Setting up data
I0430 09:58:55.363608  1694 db_lmdb.cpp:22] Opened lmdb Acre/Acre_train_lmdb
I0430 09:58:55.398576  1694 data_layer.cpp:52] output data size: 32,15,227,227
I0430 09:58:55.703436  1694 net.cpp:127] Top shape: 32 15 227 227 (24733920)
I0430 09:58:55.703474  1694 net.cpp:127] Top shape: 32 (32)
I0430 09:58:55.703491  1694 layer_factory.hpp:74] Creating layer label_data_1_split
I0430 09:58:55.703516  1694 net.cpp:90] Creating Layer label_data_1_split
I0430 09:58:55.703528  1694 net.cpp:410] label_data_1_split <- label
I0430 09:58:55.703594  1694 net.cpp:368] label_data_1_split -> label_data_1_split_0
I0430 09:58:55.703629  1694 net.cpp:368] label_data_1_split -> label_data_1_split_1
I0430 09:58:55.703644  1694 net.cpp:120] Setting up label_data_1_split
I0430 09:58:55.703671  1694 net.cpp:127] Top shape: 32 (32)
I0430 09:58:55.703683  1694 net.cpp:127] Top shape: 32 (32)
I0430 09:58:55.703696  1694 layer_factory.hpp:74] Creating layer conv1
I0430 09:58:55.703724  1694 net.cpp:90] Creating Layer conv1
I0430 09:58:55.703739  1694 net.cpp:410] conv1 <- data
I0430 09:58:55.703753  1694 net.cpp:368] conv1 -> conv1
I0430 09:58:55.703827  1694 net.cpp:120] Setting up conv1
I0430 09:58:57.085693  1694 net.cpp:127] Top shape: 32 96 109 109 (36498432)
I0430 09:58:57.085731  1694 layer_factory.hpp:74] Creating layer relu1
I0430 09:58:57.085743  1694 net.cpp:90] Creating Layer relu1
I0430 09:58:57.085749  1694 net.cpp:410] relu1 <- conv1
I0430 09:58:57.085757  1694 net.cpp:357] relu1 -> conv1 (in-place)
I0430 09:58:57.085767  1694 net.cpp:120] Setting up relu1
I0430 09:58:57.085855  1694 net.cpp:127] Top shape: 32 96 109 109 (36498432)
I0430 09:58:57.085865  1694 layer_factory.hpp:74] Creating layer pool1
I0430 09:58:57.085877  1694 net.cpp:90] Creating Layer pool1
I0430 09:58:57.085888  1694 net.cpp:410] pool1 <- conv1
I0430 09:58:57.085901  1694 net.cpp:368] pool1 -> pool1
I0430 09:58:57.085913  1694 net.cpp:120] Setting up pool1
I0430 09:58:57.086190  1694 net.cpp:127] Top shape: 32 96 54 54 (8957952)
I0430 09:58:57.086205  1694 layer_factory.hpp:74] Creating layer norm1
I0430 09:58:57.086220  1694 net.cpp:90] Creating Layer norm1
I0430 09:58:57.086230  1694 net.cpp:410] norm1 <- pool1
I0430 09:58:57.086241  1694 net.cpp:368] norm1 -> norm1
I0430 09:58:57.086284  1694 net.cpp:120] Setting up norm1
I0430 09:58:57.086309  1694 net.cpp:127] Top shape: 32 96 54 54 (8957952)
I0430 09:58:57.086319  1694 layer_factory.hpp:74] Creating layer conv2
I0430 09:58:57.086333  1694 net.cpp:90] Creating Layer conv2
I0430 09:58:57.086346  1694 net.cpp:410] conv2 <- norm1
I0430 09:58:57.086364  1694 net.cpp:368] conv2 -> conv2
I0430 09:58:57.086385  1694 net.cpp:120] Setting up conv2
I0430 09:58:57.120918  1694 net.cpp:127] Top shape: 32 384 24 24 (7077888)
I0430 09:58:57.120954  1694 layer_factory.hpp:74] Creating layer relu2
I0430 09:58:57.120970  1694 net.cpp:90] Creating Layer relu2
I0430 09:58:57.120980  1694 net.cpp:410] relu2 <- conv2
I0430 09:58:57.120991  1694 net.cpp:357] relu2 -> conv2 (in-place)
I0430 09:58:57.121004  1694 net.cpp:120] Setting up relu2
I0430 09:58:57.121103  1694 net.cpp:127] Top shape: 32 384 24 24 (7077888)
I0430 09:58:57.121114  1694 layer_factory.hpp:74] Creating layer pool2
I0430 09:58:57.121131  1694 net.cpp:90] Creating Layer pool2
I0430 09:58:57.121140  1694 net.cpp:410] pool2 <- conv2
I0430 09:58:57.121155  1694 net.cpp:368] pool2 -> pool2
I0430 09:58:57.121170  1694 net.cpp:120] Setting up pool2
I0430 09:58:57.121284  1694 net.cpp:127] Top shape: 32 384 12 12 (1769472)
I0430 09:58:57.121295  1694 layer_factory.hpp:74] Creating layer norm2
I0430 09:58:57.121312  1694 net.cpp:90] Creating Layer norm2
I0430 09:58:57.121321  1694 net.cpp:410] norm2 <- pool2
I0430 09:58:57.121332  1694 net.cpp:368] norm2 -> norm2
I0430 09:58:57.121345  1694 net.cpp:120] Setting up norm2
I0430 09:58:57.121359  1694 net.cpp:127] Top shape: 32 384 12 12 (1769472)
I0430 09:58:57.121367  1694 layer_factory.hpp:74] Creating layer conv3
I0430 09:58:57.121384  1694 net.cpp:90] Creating Layer conv3
I0430 09:58:57.121397  1694 net.cpp:410] conv3 <- norm2
I0430 09:58:57.121414  1694 net.cpp:368] conv3 -> conv3
I0430 09:58:57.121428  1694 net.cpp:120] Setting up conv3
I0430 09:58:57.305299  1694 net.cpp:127] Top shape: 32 512 10 10 (1638400)
I0430 09:58:57.305336  1694 layer_factory.hpp:74] Creating layer relu3
I0430 09:58:57.305353  1694 net.cpp:90] Creating Layer relu3
I0430 09:58:57.305363  1694 net.cpp:410] relu3 <- conv3
I0430 09:58:57.305376  1694 net.cpp:357] relu3 -> conv3 (in-place)
I0430 09:58:57.305389  1694 net.cpp:120] Setting up relu3
I0430 09:58:57.305485  1694 net.cpp:127] Top shape: 32 512 10 10 (1638400)
I0430 09:58:57.305498  1694 layer_factory.hpp:74] Creating layer conv4
I0430 09:58:57.305513  1694 net.cpp:90] Creating Layer conv4
I0430 09:58:57.305521  1694 net.cpp:410] conv4 <- conv3
I0430 09:58:57.305537  1694 net.cpp:368] conv4 -> conv4
I0430 09:58:57.305552  1694 net.cpp:120] Setting up conv4
I0430 09:58:57.428936  1694 net.cpp:127] Top shape: 32 512 8 8 (1048576)
I0430 09:58:57.428969  1694 layer_factory.hpp:74] Creating layer relu4
I0430 09:58:57.428989  1694 net.cpp:90] Creating Layer relu4
I0430 09:58:57.428999  1694 net.cpp:410] relu4 <- conv4
I0430 09:58:57.429013  1694 net.cpp:357] relu4 -> conv4 (in-place)
I0430 09:58:57.429028  1694 net.cpp:120] Setting up relu4
I0430 09:58:57.429271  1694 net.cpp:127] Top shape: 32 512 8 8 (1048576)
I0430 09:58:57.429286  1694 layer_factory.hpp:74] Creating layer conv5
I0430 09:58:57.429302  1694 net.cpp:90] Creating Layer conv5
I0430 09:58:57.429311  1694 net.cpp:410] conv5 <- conv4
I0430 09:58:57.429329  1694 net.cpp:368] conv5 -> conv5
I0430 09:58:57.429344  1694 net.cpp:120] Setting up conv5
I0430 09:58:57.463436  1694 net.cpp:127] Top shape: 32 384 8 8 (786432)
I0430 09:58:57.463474  1694 layer_factory.hpp:74] Creating layer relu5
I0430 09:58:57.463495  1694 net.cpp:90] Creating Layer relu5
I0430 09:58:57.463505  1694 net.cpp:410] relu5 <- conv5
I0430 09:58:57.463520  1694 net.cpp:357] relu5 -> conv5 (in-place)
I0430 09:58:57.463533  1694 net.cpp:120] Setting up relu5
I0430 09:58:57.463631  1694 net.cpp:127] Top shape: 32 384 8 8 (786432)
I0430 09:58:57.463644  1694 layer_factory.hpp:74] Creating layer pool5
I0430 09:58:57.463665  1694 net.cpp:90] Creating Layer pool5
I0430 09:58:57.463675  1694 net.cpp:410] pool5 <- conv5
I0430 09:58:57.463706  1694 net.cpp:368] pool5 -> pool5
I0430 09:58:57.463726  1694 net.cpp:120] Setting up pool5
I0430 09:58:57.463825  1694 net.cpp:127] Top shape: 32 384 4 4 (196608)
I0430 09:58:57.463840  1694 layer_factory.hpp:74] Creating layer fc6
I0430 09:58:57.463860  1694 net.cpp:90] Creating Layer fc6
I0430 09:58:57.463870  1694 net.cpp:410] fc6 <- pool5
I0430 09:58:57.463882  1694 net.cpp:368] fc6 -> fc6
I0430 09:58:57.463901  1694 net.cpp:120] Setting up fc6
I0430 09:58:57.493333  1694 net.cpp:127] Top shape: 32 128 (4096)
I0430 09:58:57.493376  1694 layer_factory.hpp:74] Creating layer relu6
I0430 09:58:57.493402  1694 net.cpp:90] Creating Layer relu6
I0430 09:58:57.493414  1694 net.cpp:410] relu6 <- fc6
I0430 09:58:57.493427  1694 net.cpp:357] relu6 -> fc6 (in-place)
I0430 09:58:57.493441  1694 net.cpp:120] Setting up relu6
I0430 09:58:57.493563  1694 net.cpp:127] Top shape: 32 128 (4096)
I0430 09:58:57.493576  1694 layer_factory.hpp:74] Creating layer drop6
I0430 09:58:57.493594  1694 net.cpp:90] Creating Layer drop6
I0430 09:58:57.493603  1694 net.cpp:410] drop6 <- fc6
I0430 09:58:57.493618  1694 net.cpp:357] drop6 -> fc6 (in-place)
I0430 09:58:57.493634  1694 net.cpp:120] Setting up drop6
I0430 09:58:57.493661  1694 net.cpp:127] Top shape: 32 128 (4096)
I0430 09:58:57.493676  1694 layer_factory.hpp:74] Creating layer fc7
I0430 09:58:57.493691  1694 net.cpp:90] Creating Layer fc7
I0430 09:58:57.493705  1694 net.cpp:410] fc7 <- fc6
I0430 09:58:57.493717  1694 net.cpp:368] fc7 -> fc7
I0430 09:58:57.493732  1694 net.cpp:120] Setting up fc7
I0430 09:58:57.494067  1694 net.cpp:127] Top shape: 32 64 (2048)
I0430 09:58:57.494084  1694 layer_factory.hpp:74] Creating layer relu7
I0430 09:58:57.494102  1694 net.cpp:90] Creating Layer relu7
I0430 09:58:57.494110  1694 net.cpp:410] relu7 <- fc7
I0430 09:58:57.494122  1694 net.cpp:357] relu7 -> fc7 (in-place)
I0430 09:58:57.494133  1694 net.cpp:120] Setting up relu7
I0430 09:58:57.494532  1694 net.cpp:127] Top shape: 32 64 (2048)
I0430 09:58:57.494549  1694 layer_factory.hpp:74] Creating layer drop7
I0430 09:58:57.494562  1694 net.cpp:90] Creating Layer drop7
I0430 09:58:57.494570  1694 net.cpp:410] drop7 <- fc7
I0430 09:58:57.494582  1694 net.cpp:357] drop7 -> fc7 (in-place)
I0430 09:58:57.494593  1694 net.cpp:120] Setting up drop7
I0430 09:58:57.494607  1694 net.cpp:127] Top shape: 32 64 (2048)
I0430 09:58:57.494616  1694 layer_factory.hpp:74] Creating layer fc8-ucf
I0430 09:58:57.494631  1694 net.cpp:90] Creating Layer fc8-ucf
I0430 09:58:57.494644  1694 net.cpp:410] fc8-ucf <- fc7
I0430 09:58:57.494663  1694 net.cpp:368] fc8-ucf -> fc8-ucf
I0430 09:58:57.494683  1694 net.cpp:120] Setting up fc8-ucf
I0430 09:58:57.494745  1694 net.cpp:127] Top shape: 32 10 (320)
I0430 09:58:57.494760  1694 layer_factory.hpp:74] Creating layer fc8-ucf_fc8-ucf_0_split
I0430 09:58:57.494777  1694 net.cpp:90] Creating Layer fc8-ucf_fc8-ucf_0_split
I0430 09:58:57.494786  1694 net.cpp:410] fc8-ucf_fc8-ucf_0_split <- fc8-ucf
I0430 09:58:57.494798  1694 net.cpp:368] fc8-ucf_fc8-ucf_0_split -> fc8-ucf_fc8-ucf_0_split_0
I0430 09:58:57.494812  1694 net.cpp:368] fc8-ucf_fc8-ucf_0_split -> fc8-ucf_fc8-ucf_0_split_1
I0430 09:58:57.494827  1694 net.cpp:120] Setting up fc8-ucf_fc8-ucf_0_split
I0430 09:58:57.494840  1694 net.cpp:127] Top shape: 32 10 (320)
I0430 09:58:57.494853  1694 net.cpp:127] Top shape: 32 10 (320)
I0430 09:58:57.494861  1694 layer_factory.hpp:74] Creating layer loss
I0430 09:58:57.494877  1694 net.cpp:90] Creating Layer loss
I0430 09:58:57.494886  1694 net.cpp:410] loss <- fc8-ucf_fc8-ucf_0_split_0
I0430 09:58:57.494895  1694 net.cpp:410] loss <- label_data_1_split_0
I0430 09:58:57.494910  1694 net.cpp:368] loss -> loss
I0430 09:58:57.494928  1694 net.cpp:120] Setting up loss
I0430 09:58:57.494946  1694 layer_factory.hpp:74] Creating layer loss
…
I0430 09:58:57.496167  1694 solver.cpp:154] Creating test net (#0) specified by net file: Acre/ac_train_test.prototxt
I0430 09:58:57.496225  1694 net.cpp:287] The NetState phase (1) differed from the phase (0) specified by a rule in layer data
I0430 09:58:57.496459  1694 net.cpp:42] Initializing net from parameters: 
name: "ac_re"
state {
  phase: TEST
}
layer {
  name: "data"
  type: "Data"
  top: "data"
  top: "label"
  include {
    phase: TEST
  }
  transform_param {
    mirror: false
    crop_size: 227
    mean_value: 103.939
  }
  data_param {
    source: "Acre/Acre_test_lmdb"
    batch_size: 64
    backend: LMDB
  }
}
layer {
  name: "conv1"
  type: "Convolution"
  bottom: "data"
  top: "conv1"
  param {
    lr_mult: 1
    decay_mult: 1
  }
  param {
    lr_mult: 2
    decay_mult: 0
  }
  convolution_param {
    num_output: 96
    kernel_size: 11
    stride: 2
    weight_filler {
      type: "gaussian"
      std: 0.01
    }
    bias_filler {
      type: "constant"
      value: 0.1
    }
  }
}
layer {
  name: "relu1"
  type: "ReLU"
  bottom: "conv1"
  top: "conv1"
}
layer {
  name: "pool1"
  type: "Pooling"
  bottom: "conv1"
  top: "pool1"
  pooling_param {
    pool: MAX
    kernel_size: 3
    stride: 2
  }
}
layer {
  name: "norm1"
  type: "LRN"
  bottom: "pool1"
  top: "norm1"
  lrn_param {
    local_size: 5
    alpha: 0.0001
    beta: 0.75
  }
}
layer {
  name: "conv2"
  type: "Convolution"
  bottom: "norm1"
  top: "conv2"
  param {
    lr_mult: 1
    decay_mult: 1
  }
  param {
    lr_mult: 2
    decay_mult: 0
  }
  convolution_param {
    num_output: 384
    kernel_size: 7
    group: 2
    stride: 2
    weight_filler {
      type: "gaussian"
      std: 0.01
    }
    bias_filler {
      type: "constant"
      value: 1
    }
  }
}
layer {
  name: "relu2"
  type: "ReLU"
  bottom: "conv2"
  top: "conv2"
}
layer {
  name: "pool2"
  type: "Pooling"
  bottom: "conv2"
  top: "pool2"
  pooling_param {
    pool: MAX
    kernel_size: 3
    stride: 2
  }
}
layer {
  name: "norm2"
  type: "LRN"
  bottom: "pool2"
  top: "norm2"
  lrn_param {
    local_size: 5
    alpha: 0.0001
    beta: 0.75
  }
}
layer {
  name: "conv3"
  type: "Convolution"
  bottom: "norm2"
  top: "conv3"
  param {
    lr_mult: 1
    decay_mult: 1
  }
  param {
    lr_mult: 2
    decay_mult: 0
  }
  convolution_param {
    num_output: 512
    pad: 1
    kernel_size: 5
    weight_filler {
      type: "gaussian"
      std: 0.01
    }
    bias_filler {
      type: "constant"
      value: 0.1
    }
  }
}
layer {
  name: "relu3"
  type: "ReLU"
  bottom: "conv3"
  top: "conv3"
}
layer {
  name: "conv4"
  type: "Convolution"
  bottom: "conv3"
  top: "conv4"
  param {
    lr_mult: 1
    decay_mult: 1
  }
  param {
    lr_mult: 2
    decay_mult: 0
  }
  convolution_param {
    num_output: 512
    pad: 1
    kernel_size: 5
    group: 2
    weight_filler {
      type: "gaussian"
      std: 0.01
    }
    bias_filler {
      type: "constant"
      value: 0.1
    }
  }
}
layer {
  name: "relu4"
  type: "ReLU"
  bottom: "conv4"
  top: "conv4"
}
layer {
  name: "conv5"
  type: "Convolution"
  bottom: "conv4"
  top: "conv5"
  param {
    lr_mult: 1
    decay_mult: 1
  }
  param {
    lr_mult: 2
    decay_mult: 0
  }
  convolution_param {
    num_output: 384
    pad: 1
    kernel_size: 3
    group: 2
    weight_filler {
      type: "gaussian"
      std: 0.01
    }
    bias_filler {
      type: "constant"
      value: 0.1
    }
  }
}
layer {
  name: "relu5"
  type: "ReLU"
  bottom: "conv5"
  top: "conv5"
}
layer {
  name: "pool5"
  type: "Pooling"
  bottom: "conv5"
  top: "pool5"
  pooling_param {
    pool: MAX
    kernel_size: 3
    stride: 2
  }
}
layer {
  name: "fc6"
  type: "InnerProduct"
  bottom: "pool5"
  top: "fc6"
  param {
    lr_mult: 1
    decay_mult: 1
  }
  param {
    lr_mult: 2
    decay_mult: 0
  }
  inner_product_param {
    num_output: 128
    weight_filler {
      type: "gaussian"
      std: 0.01
    }
    bias_filler {
      type: "constant"
      value: 0.1
    }
  }
}
layer {
  name: "relu6"
  type: "ReLU"
  bottom: "fc6"
  top: "fc6"
}
layer {
  name: "drop6"
  type: "Dropout"
  bottom: "fc6"
  top: "fc6"
  dropout_param {
    dropout_ratio: 0.5
  }
}
layer {
  name: "fc7"
  type: "InnerProduct"
  bottom: "fc6"
  top: "fc7"
  param {
    lr_mult: 1
    decay_mult: 1
  }
  param {
    lr_mult: 2
    decay_mult: 0
  }
  inner_product_param {
    num_output: 64
    weight_filler {
      type: "gaussian"
      std: 0.01
    }
    bias_filler {
      type: "constant"
      value: 0.1
    }
  }
}
layer {
  name: "relu7"
  type: "ReLU"
  bottom: "fc7"
  top: "fc7"
}
layer {
  name: "drop7"
  type: "Dropout"
  bottom: "fc7"
  top: "fc7"
  dropout_param {
    dropout_ratio: 0.5
  }
}
layer {
  name: "fc8-ucf"
  type: "InnerProduct"
  bottom: "fc7"
  top: "fc8-ucf"
  param {
    lr_mult: 10
    decay_mult: 1
  }
  param {
    lr_mult: 20
    decay_mult: 0
  }
  inner_product_param {
    num_output: 10
    weight_filler {
      type: "gaussian"
      std: 0.01
    }
    bias_filler {
      type: "constant"
      value: 0
    }
  }
}
layer {
  name: "loss"
  type: "SoftmaxWithLoss"
  bottom: "fc8-ucf"
  bottom: "label"
  top: "loss"
}
layer {
  name: "accuracy"
  type: "Accuracy"
  bottom: "fc8-ucf"
  bottom: "label"
  top: "accuracy"
}
I0430 09:58:57.496644  1694 layer_factory.hpp:74] Creating layer data
I0430 09:58:57.496677  1694 net.cpp:90] Creating Layer data
I0430 09:58:57.496688  1694 net.cpp:368] data -> data
I0430 09:58:57.496704  1694 net.cpp:368] data -> label
I0430 09:58:57.496717  1694 net.cpp:120] Setting up data
I0430 09:58:57.514418  1694 db_lmdb.cpp:22] Opened lmdb Acre/Acre_test_lmdb
I0430 09:58:57.667377  1694 data_layer.cpp:52] output data size: 64,15,227,227
I0430 09:58:57.849022  1694 net.cpp:127] Top shape: 64 15 227 227 (49467840)
I0430 09:58:57.849050  1694 net.cpp:127] Top shape: 64 (64)
I0430 09:58:57.849064  1694 layer_factory.hpp:74] Creating layer label_data_1_split
I0430 09:58:57.849084  1694 net.cpp:90] Creating Layer label_data_1_split
I0430 09:58:57.849093  1694 net.cpp:410] label_data_1_split <- label
I0430 09:58:57.849107  1694 net.cpp:368] label_data_1_split -> label_data_1_split_0
I0430 09:58:57.849125  1694 net.cpp:368] label_data_1_split -> label_data_1_split_1
I0430 09:58:57.849138  1694 net.cpp:120] Setting up label_data_1_split
I0430 09:58:57.849155  1694 net.cpp:127] Top shape: 64 (64)
I0430 09:58:57.849179  1694 net.cpp:127] Top shape: 64 (64)
I0430 09:58:57.849187  1694 layer_factory.hpp:74] Creating layer conv1
I0430 09:58:57.849206  1694 net.cpp:90] Creating Layer conv1
I0430 09:58:57.849220  1694 net.cpp:410] conv1 <- data
I0430 09:58:57.849233  1694 net.cpp:368] conv1 -> conv1
I0430 09:58:57.849248  1694 net.cpp:120] Setting up conv1
I0430 09:58:57.856294  1694 net.cpp:127] Top shape: 64 96 109 109 (72996864)
I0430 09:58:57.856328  1694 layer_factory.hpp:74] Creating layer relu1
I0430 09:58:57.856344  1694 net.cpp:90] Creating Layer relu1
I0430 09:58:57.856353  1694 net.cpp:410] relu1 <- conv1
I0430 09:58:57.856365  1694 net.cpp:357] relu1 -> conv1 (in-place)
I0430 09:58:57.856379  1694 net.cpp:120] Setting up relu1
I0430 09:58:57.856470  1694 net.cpp:127] Top shape: 64 96 109 109 (72996864)
I0430 09:58:57.856482  1694 layer_factory.hpp:74] Creating layer pool1
I0430 09:58:57.856498  1694 net.cpp:90] Creating Layer pool1
I0430 09:58:57.856508  1694 net.cpp:410] pool1 <- conv1
I0430 09:58:57.856519  1694 net.cpp:368] pool1 -> pool1
I0430 09:58:57.856533  1694 net.cpp:120] Setting up pool1
I0430 09:58:57.856626  1694 net.cpp:127] Top shape: 64 96 54 54 (17915904)
I0430 09:58:57.856638  1694 layer_factory.hpp:74] Creating layer norm1
I0430 09:58:57.856652  1694 net.cpp:90] Creating Layer norm1
I0430 09:58:57.856660  1694 net.cpp:410] norm1 <- pool1
I0430 09:58:57.856673  1694 net.cpp:368] norm1 -> norm1
I0430 09:58:57.856684  1694 net.cpp:120] Setting up norm1
I0430 09:58:57.856699  1694 net.cpp:127] Top shape: 64 96 54 54 (17915904)
I0430 09:58:57.856708  1694 layer_factory.hpp:74] Creating layer conv2
I0430 09:58:57.856722  1694 net.cpp:90] Creating Layer conv2
I0430 09:58:57.856730  1694 net.cpp:410] conv2 <- norm1
I0430 09:58:57.856742  1694 net.cpp:368] conv2 -> conv2
I0430 09:58:57.856755  1694 net.cpp:120] Setting up conv2
I0430 09:58:57.891783  1694 net.cpp:127] Top shape: 64 384 24 24 (14155776)
I0430 09:58:57.891845  1694 layer_factory.hpp:74] Creating layer relu2
I0430 09:58:57.891865  1694 net.cpp:90] Creating Layer relu2
I0430 09:58:57.891875  1694 net.cpp:410] relu2 <- conv2
I0430 09:58:57.891887  1694 net.cpp:357] relu2 -> conv2 (in-place)
I0430 09:58:57.891904  1694 net.cpp:120] Setting up relu2
I0430 09:58:57.892233  1694 net.cpp:127] Top shape: 64 384 24 24 (14155776)
I0430 09:58:57.892248  1694 layer_factory.hpp:74] Creating layer pool2
I0430 09:58:57.892266  1694 net.cpp:90] Creating Layer pool2
I0430 09:58:57.892276  1694 net.cpp:410] pool2 <- conv2
I0430 09:58:57.892287  1694 net.cpp:368] pool2 -> pool2
I0430 09:58:57.892302  1694 net.cpp:120] Setting up pool2
I0430 09:58:57.892402  1694 net.cpp:127] Top shape: 64 384 12 12 (3538944)
I0430 09:58:57.892415  1694 layer_factory.hpp:74] Creating layer norm2
I0430 09:58:57.892431  1694 net.cpp:90] Creating Layer norm2
I0430 09:58:57.892439  1694 net.cpp:410] norm2 <- pool2
I0430 09:58:57.892452  1694 net.cpp:368] norm2 -> norm2
I0430 09:58:57.892467  1694 net.cpp:120] Setting up norm2
I0430 09:58:57.892529  1694 net.cpp:127] Top shape: 64 384 12 12 (3538944)
I0430 09:58:57.892544  1694 layer_factory.hpp:74] Creating layer conv3
I0430 09:58:57.892565  1694 net.cpp:90] Creating Layer conv3
I0430 09:58:57.892577  1694 net.cpp:410] conv3 <- norm2
I0430 09:58:57.892591  1694 net.cpp:368] conv3 -> conv3
I0430 09:58:57.892608  1694 net.cpp:120] Setting up conv3
I0430 09:58:58.080654  1694 net.cpp:127] Top shape: 64 512 10 10 (3276800)
I0430 09:58:58.080693  1694 layer_factory.hpp:74] Creating layer relu3
I0430 09:58:58.080710  1694 net.cpp:90] Creating Layer relu3
I0430 09:58:58.080719  1694 net.cpp:410] relu3 <- conv3
I0430 09:58:58.080731  1694 net.cpp:357] relu3 -> conv3 (in-place)
I0430 09:58:58.080744  1694 net.cpp:120] Setting up relu3
I0430 09:58:58.080847  1694 net.cpp:127] Top shape: 64 512 10 10 (3276800)
I0430 09:58:58.080855  1694 layer_factory.hpp:74] Creating layer conv4
I0430 09:58:58.080867  1694 net.cpp:90] Creating Layer conv4
I0430 09:58:58.080870  1694 net.cpp:410] conv4 <- conv3
I0430 09:58:58.080878  1694 net.cpp:368] conv4 -> conv4
I0430 09:58:58.080888  1694 net.cpp:120] Setting up conv4
I0430 09:58:58.204365  1694 net.cpp:127] Top shape: 64 512 8 8 (2097152)
I0430 09:58:58.204396  1694 layer_factory.hpp:74] Creating layer relu4
I0430 09:58:58.204412  1694 net.cpp:90] Creating Layer relu4
I0430 09:58:58.204421  1694 net.cpp:410] relu4 <- conv4
I0430 09:58:58.204435  1694 net.cpp:357] relu4 -> conv4 (in-place)
I0430 09:58:58.204449  1694 net.cpp:120] Setting up relu4
I0430 09:58:58.204690  1694 net.cpp:127] Top shape: 64 512 8 8 (2097152)
I0430 09:58:58.204704  1694 layer_factory.hpp:74] Creating layer conv5
I0430 09:58:58.204720  1694 net.cpp:90] Creating Layer conv5
I0430 09:58:58.204730  1694 net.cpp:410] conv5 <- conv4
I0430 09:58:58.204742  1694 net.cpp:368] conv5 -> conv5
I0430 09:58:58.204757  1694 net.cpp:120] Setting up conv5
I0430 09:58:58.238716  1694 net.cpp:127] Top shape: 64 384 8 8 (1572864)
I0430 09:58:58.238754  1694 layer_factory.hpp:74] Creating layer relu5
I0430 09:58:58.238772  1694 net.cpp:90] Creating Layer relu5
I0430 09:58:58.238781  1694 net.cpp:410] relu5 <- conv5
I0430 09:58:58.238795  1694 net.cpp:357] relu5 -> conv5 (in-place)
I0430 09:58:58.238808  1694 net.cpp:120] Setting up relu5
I0430 09:58:58.238899  1694 net.cpp:127] Top shape: 64 384 8 8 (1572864)
I0430 09:58:58.238911  1694 layer_factory.hpp:74] Creating layer pool5
I0430 09:58:58.238930  1694 net.cpp:90] Creating Layer pool5
I0430 09:58:58.238940  1694 net.cpp:410] pool5 <- conv5
I0430 09:58:58.238951  1694 net.cpp:368] pool5 -> pool5
I0430 09:58:58.238965  1694 net.cpp:120] Setting up pool5
I0430 09:58:58.239061  1694 net.cpp:127] Top shape: 64 384 4 4 (393216)
I0430 09:58:58.239073  1694 layer_factory.hpp:74] Creating layer fc6
I0430 09:58:58.239089  1694 net.cpp:90] Creating Layer fc6
I0430 09:58:58.239097  1694 net.cpp:410] fc6 <- pool5
I0430 09:58:58.239109  1694 net.cpp:368] fc6 -> fc6
I0430 09:58:58.239123  1694 net.cpp:120] Setting up fc6
I0430 09:58:58.268604  1694 net.cpp:127] Top shape: 64 128 (8192)
I0430 09:58:58.268637  1694 layer_factory.hpp:74] Creating layer relu6
I0430 09:58:58.268654  1694 net.cpp:90] Creating Layer relu6
I0430 09:58:58.268663  1694 net.cpp:410] relu6 <- fc6
I0430 09:58:58.268677  1694 net.cpp:357] relu6 -> fc6 (in-place)
I0430 09:58:58.268692  1694 net.cpp:120] Setting up relu6
I0430 09:58:58.268806  1694 net.cpp:127] Top shape: 64 128 (8192)
I0430 09:58:58.268818  1694 layer_factory.hpp:74] Creating layer drop6
I0430 09:58:58.268831  1694 net.cpp:90] Creating Layer drop6
I0430 09:58:58.268841  1694 net.cpp:410] drop6 <- fc6
I0430 09:58:58.268851  1694 net.cpp:357] drop6 -> fc6 (in-place)
I0430 09:58:58.268864  1694 net.cpp:120] Setting up drop6
I0430 09:58:58.268878  1694 net.cpp:127] Top shape: 64 128 (8192)
I0430 09:58:58.268887  1694 layer_factory.hpp:74] Creating layer fc7
I0430 09:58:58.268900  1694 net.cpp:90] Creating Layer fc7
I0430 09:58:58.268908  1694 net.cpp:410] fc7 <- fc6
I0430 09:58:58.268921  1694 net.cpp:368] fc7 -> fc7
I0430 09:58:58.268959  1694 net.cpp:120] Setting up fc7
I0430 09:58:58.269285  1694 net.cpp:127] Top shape: 64 64 (4096)
I0430 09:58:58.269301  1694 layer_factory.hpp:74] Creating layer relu7
I0430 09:58:58.269314  1694 net.cpp:90] Creating Layer relu7
I0430 09:58:58.269323  1694 net.cpp:410] relu7 <- fc7
I0430 09:58:58.269335  1694 net.cpp:357] relu7 -> fc7 (in-place)
I0430 09:58:58.269345  1694 net.cpp:120] Setting up relu7
I0430 09:58:58.269668  1694 net.cpp:127] Top shape: 64 64 (4096)
I0430 09:58:58.269682  1694 layer_factory.hpp:74] Creating layer drop7
I0430 09:58:58.269695  1694 net.cpp:90] Creating Layer drop7
I0430 09:58:58.269702  1694 net.cpp:410] drop7 <- fc7
I0430 09:58:58.269713  1694 net.cpp:357] drop7 -> fc7 (in-place)
I0430 09:58:58.269726  1694 net.cpp:120] Setting up drop7
I0430 09:58:58.269738  1694 net.cpp:127] Top shape: 64 64 (4096)
I0430 09:58:58.269747  1694 layer_factory.hpp:74] Creating layer fc8-ucf
I0430 09:58:58.269760  1694 net.cpp:90] Creating Layer fc8-ucf
I0430 09:58:58.269768  1694 net.cpp:410] fc8-ucf <- fc7
I0430 09:58:58.269780  1694 net.cpp:368] fc8-ucf -> fc8-ucf
I0430 09:58:58.269798  1694 net.cpp:120] Setting up fc8-ucf
I0430 09:58:58.269853  1694 net.cpp:127] Top shape: 64 10 (640)
I0430 09:58:58.269870  1694 layer_factory.hpp:74] Creating layer fc8-ucf_fc8-ucf_0_split
I0430 09:58:58.269882  1694 net.cpp:90] Creating Layer fc8-ucf_fc8-ucf_0_split
I0430 09:58:58.269891  1694 net.cpp:410] fc8-ucf_fc8-ucf_0_split <- fc8-ucf
I0430 09:58:58.269902  1694 net.cpp:368] fc8-ucf_fc8-ucf_0_split -> fc8-ucf_fc8-ucf_0_split_0
I0430 09:58:58.269917  1694 net.cpp:368] fc8-ucf_fc8-ucf_0_split -> fc8-ucf_fc8-ucf_0_split_1
I0430 09:58:58.269928  1694 net.cpp:120] Setting up fc8-ucf_fc8-ucf_0_split
I0430 09:58:58.269942  1694 net.cpp:127] Top shape: 64 10 (640)
I0430 09:58:58.269953  1694 net.cpp:127] Top shape: 64 10 (640)
I0430 09:58:58.269960  1694 layer_factory.hpp:74] Creating layer loss
I0430 09:58:58.269973  1694 net.cpp:90] Creating Layer loss
I0430 09:58:58.269981  1694 net.cpp:410] loss <- fc8-ucf_fc8-ucf_0_split_0
I0430 09:58:58.269991  1694 net.cpp:410] loss <- label_data_1_split_0
I0430 09:58:58.270002  1694 net.cpp:368] loss -> loss
I0430 09:58:58.270014  1694 net.cpp:120] Setting up loss
I0430 09:58:58.270025  1694 layer_factory.hpp:74] Creating layer loss
…
