…
I0502 02:42:47.185912 11968 solver.cpp:70] Creating training net from net file: Acre/ac_train_test.prototxt
I0502 02:42:47.197230 11968 net.cpp:287] The NetState phase (0) differed from the phase (1) specified by a rule in layer data
I0502 02:42:47.197479 11968 net.cpp:42] Initializing net from parameters: 
name: "ac_re"
state {
  phase: TRAIN
}
layer {
  name: "data"
  type: "Data"
  top: "data"
  top: "label"
  include {
    phase: TRAIN
  }
  transform_param {
    crop_size: 227
    mean_value: 103.939
  }
  data_param {
    source: "Acre/Acre_train_lmdb"
    batch_size: 32
    backend: LMDB
  }
}
layer {
  name: "conv1"
  type: "Convolution"
  bottom: "data"
  top: "conv1"
  param {
    lr_mult: 1
    decay_mult: 1
  }
  param {
    lr_mult: 2
    decay_mult: 0
  }
  convolution_param {
    num_output: 96
    kernel_size: 11
    stride: 2
    weight_filler {
      type: "gaussian"
      std: 0.01
    }
    bias_filler {
      type: "constant"
      value: 0.1
    }
  }
}
layer {
  name: "relu1"
  type: "ReLU"
  bottom: "conv1"
  top: "conv1"
}
layer {
  name: "pool1"
  type: "Pooling"
  bottom: "conv1"
  top: "pool1"
  pooling_param {
    pool: MAX
    kernel_size: 3
    stride: 2
  }
}
layer {
  name: "norm1"
  type: "LRN"
  bottom: "pool1"
  top: "norm1"
  lrn_param {
    local_size: 5
    alpha: 0.0001
    beta: 0.75
  }
}
layer {
  name: "conv2"
  type: "Convolution"
  bottom: "norm1"
  top: "conv2"
  param {
    lr_mult: 1
    decay_mult: 1
  }
  param {
    lr_mult: 2
    decay_mult: 0
  }
  convolution_param {
    num_output: 384
    kernel_size: 7
    group: 2
    stride: 2
    weight_filler {
      type: "gaussian"
      std: 0.01
    }
    bias_filler {
      type: "constant"
      value: 1
    }
  }
}
layer {
  name: "relu2"
  type: "ReLU"
  bottom: "conv2"
  top: "conv2"
}
layer {
  name: "pool2"
  type: "Pooling"
  bottom: "conv2"
  top: "pool2"
  pooling_param {
    pool: MAX
    kernel_size: 3
    stride: 2
  }
}
layer {
  name: "norm2"
  type: "LRN"
  bottom: "pool2"
  top: "norm2"
  lrn_param {
    local_size: 5
    alpha: 0.0001
    beta: 0.75
  }
}
layer {
  name: "conv3"
  type: "Convolution"
  bottom: "norm2"
  top: "conv3"
  param {
    lr_mult: 1
    decay_mult: 1
  }
  param {
    lr_mult: 2
    decay_mult: 0
  }
  convolution_param {
    num_output: 512
    pad: 1
    kernel_size: 5
    weight_filler {
      type: "gaussian"
      std: 0.01
    }
    bias_filler {
      type: "constant"
      value: 0.1
    }
  }
}
layer {
  name: "relu3"
  type: "ReLU"
  bottom: "conv3"
  top: "conv3"
}
layer {
  name: "conv4"
  type: "Convolution"
  bottom: "conv3"
  top: "conv4"
  param {
    lr_mult: 1
    decay_mult: 1
  }
  param {
    lr_mult: 2
    decay_mult: 0
  }
  convolution_param {
    num_output: 1024
    pad: 1
    kernel_size: 5
    group: 2
    weight_filler {
      type: "gaussian"
      std: 0.01
    }
    bias_filler {
      type: "constant"
      value: 0.1
    }
  }
}
layer {
  name: "relu4"
  type: "ReLU"
  bottom: "conv4"
  top: "conv4"
}
layer {
  name: "conv5"
  type: "Convolution"
  bottom: "conv4"
  top: "conv5"
  param {
    lr_mult: 1
    decay_mult: 1
  }
  param {
    lr_mult: 2
    decay_mult: 0
  }
  convolution_param {
    num_output: 384
    pad: 1
    kernel_size: 5
    group: 2
    weight_filler {
      type: "gaussian"
      std: 0.01
    }
    bias_filler {
      type: "constant"
      value: 0.1
    }
  }
}
layer {
  name: "relu5"
  type: "ReLU"
  bottom: "conv5"
  top: "conv5"
}
layer {
  name: "pool5"
  type: "Pooling"
  bottom: "conv5"
  top: "pool5"
  pooling_param {
    pool: MAX
    kernel_size: 3
    stride: 2
  }
}
layer {
  name: "fc6"
  type: "InnerProduct"
  bottom: "pool5"
  top: "fc6"
  param {
    lr_mult: 1
    decay_mult: 1
  }
  param {
    lr_mult: 2
    decay_mult: 0
  }
  inner_product_param {
    num_output: 256
    weight_filler {
      type: "gaussian"
      std: 0.01
    }
    bias_filler {
      type: "constant"
      value: 0.1
    }
  }
}
layer {
  name: "relu6"
  type: "ReLU"
  bottom: "fc6"
  top: "fc6"
}
layer {
  name: "drop6"
  type: "Dropout"
  bottom: "fc6"
  top: "fc6"
  dropout_param {
    dropout_ratio: 0.5
  }
}
layer {
  name: "fc7"
  type: "InnerProduct"
  bottom: "fc6"
  top: "fc7"
  param {
    lr_mult: 1
    decay_mult: 1
  }
  param {
    lr_mult: 2
    decay_mult: 0
  }
  inner_product_param {
    num_output: 64
    weight_filler {
      type: "gaussian"
      std: 0.01
    }
    bias_filler {
      type: "constant"
      value: 0.1
    }
  }
}
layer {
  name: "relu7"
  type: "ReLU"
  bottom: "fc7"
  top: "fc7"
}
layer {
  name: "drop7"
  type: "Dropout"
  bottom: "fc7"
  top: "fc7"
  dropout_param {
    dropout_ratio: 0.5
  }
}
layer {
  name: "fc8-ucf"
  type: "InnerProduct"
  bottom: "fc7"
  top: "fc8-ucf"
  param {
    lr_mult: 10
    decay_mult: 1
  }
  param {
    lr_mult: 20
    decay_mult: 0
  }
  inner_product_param {
    num_output: 10
    weight_filler {
      type: "gaussian"
      std: 0.01
    }
    bias_filler {
      type: "constant"
      value: 0
    }
  }
}
layer {
  name: "loss"
  type: "SoftmaxWithLoss"
  bottom: "fc8-ucf"
  bottom: "label"
  top: "loss"
}
layer {
  name: "accuracy"
  type: "Accuracy"
  bottom: "fc8-ucf"
  bottom: "label"
  top: "accuracy"
}
I0502 02:42:47.197651 11968 layer_factory.hpp:74] Creating layer data
I0502 02:42:47.197672 11968 net.cpp:90] Creating Layer data
I0502 02:42:47.197682 11968 net.cpp:368] data -> data
I0502 02:42:47.197723 11968 net.cpp:368] data -> label
I0502 02:42:47.197736 11968 net.cpp:120] Setting up data
I0502 02:42:47.198168 11968 db_lmdb.cpp:22] Opened lmdb Acre/Acre_train_lmdb
I0502 02:42:47.199033 11968 data_layer.cpp:52] output data size: 32,10,227,227
I0502 02:42:47.264274 11968 net.cpp:127] Top shape: 32 10 227 227 (16489280)
I0502 02:42:47.264300 11968 net.cpp:127] Top shape: 32 (32)
I0502 02:42:47.264309 11968 layer_factory.hpp:74] Creating layer label_data_1_split
I0502 02:42:47.264325 11968 net.cpp:90] Creating Layer label_data_1_split
I0502 02:42:47.264333 11968 net.cpp:410] label_data_1_split <- label
I0502 02:42:47.264349 11968 net.cpp:368] label_data_1_split -> label_data_1_split_0
I0502 02:42:47.264361 11968 net.cpp:368] label_data_1_split -> label_data_1_split_1
I0502 02:42:47.264369 11968 net.cpp:120] Setting up label_data_1_split
I0502 02:42:47.264397 11968 net.cpp:127] Top shape: 32 (32)
I0502 02:42:47.264405 11968 net.cpp:127] Top shape: 32 (32)
I0502 02:42:47.264408 11968 layer_factory.hpp:74] Creating layer conv1
I0502 02:42:47.264425 11968 net.cpp:90] Creating Layer conv1
I0502 02:42:47.264430 11968 net.cpp:410] conv1 <- data
I0502 02:42:47.264436 11968 net.cpp:368] conv1 -> conv1
I0502 02:42:47.264447 11968 net.cpp:120] Setting up conv1
I0502 02:42:48.535049 11968 net.cpp:127] Top shape: 32 96 109 109 (36498432)
I0502 02:42:48.535085 11968 layer_factory.hpp:74] Creating layer relu1
I0502 02:42:48.535099 11968 net.cpp:90] Creating Layer relu1
I0502 02:42:48.535105 11968 net.cpp:410] relu1 <- conv1
I0502 02:42:48.535114 11968 net.cpp:357] relu1 -> conv1 (in-place)
I0502 02:42:48.535122 11968 net.cpp:120] Setting up relu1
I0502 02:42:48.535199 11968 net.cpp:127] Top shape: 32 96 109 109 (36498432)
I0502 02:42:48.535212 11968 layer_factory.hpp:74] Creating layer pool1
I0502 02:42:48.535225 11968 net.cpp:90] Creating Layer pool1
I0502 02:42:48.535233 11968 net.cpp:410] pool1 <- conv1
I0502 02:42:48.535239 11968 net.cpp:368] pool1 -> pool1
I0502 02:42:48.535246 11968 net.cpp:120] Setting up pool1
I0502 02:42:48.535491 11968 net.cpp:127] Top shape: 32 96 54 54 (8957952)
I0502 02:42:48.535503 11968 layer_factory.hpp:74] Creating layer norm1
I0502 02:42:48.535512 11968 net.cpp:90] Creating Layer norm1
I0502 02:42:48.535516 11968 net.cpp:410] norm1 <- pool1
I0502 02:42:48.535526 11968 net.cpp:368] norm1 -> norm1
I0502 02:42:48.535557 11968 net.cpp:120] Setting up norm1
I0502 02:42:48.535569 11968 net.cpp:127] Top shape: 32 96 54 54 (8957952)
I0502 02:42:48.535574 11968 layer_factory.hpp:74] Creating layer conv2
I0502 02:42:48.535583 11968 net.cpp:90] Creating Layer conv2
I0502 02:42:48.535588 11968 net.cpp:410] conv2 <- norm1
I0502 02:42:48.535595 11968 net.cpp:368] conv2 -> conv2
I0502 02:42:48.535604 11968 net.cpp:120] Setting up conv2
I0502 02:42:48.568717 11968 net.cpp:127] Top shape: 32 384 24 24 (7077888)
I0502 02:42:48.568750 11968 layer_factory.hpp:74] Creating layer relu2
I0502 02:42:48.568761 11968 net.cpp:90] Creating Layer relu2
I0502 02:42:48.568768 11968 net.cpp:410] relu2 <- conv2
I0502 02:42:48.568775 11968 net.cpp:357] relu2 -> conv2 (in-place)
I0502 02:42:48.568783 11968 net.cpp:120] Setting up relu2
I0502 02:42:48.568872 11968 net.cpp:127] Top shape: 32 384 24 24 (7077888)
I0502 02:42:48.568882 11968 layer_factory.hpp:74] Creating layer pool2
I0502 02:42:48.568892 11968 net.cpp:90] Creating Layer pool2
I0502 02:42:48.568897 11968 net.cpp:410] pool2 <- conv2
I0502 02:42:48.568903 11968 net.cpp:368] pool2 -> pool2
I0502 02:42:48.568912 11968 net.cpp:120] Setting up pool2
I0502 02:42:48.568996 11968 net.cpp:127] Top shape: 32 384 12 12 (1769472)
I0502 02:42:48.569005 11968 layer_factory.hpp:74] Creating layer norm2
I0502 02:42:48.569015 11968 net.cpp:90] Creating Layer norm2
I0502 02:42:48.569018 11968 net.cpp:410] norm2 <- pool2
I0502 02:42:48.569025 11968 net.cpp:368] norm2 -> norm2
I0502 02:42:48.569032 11968 net.cpp:120] Setting up norm2
I0502 02:42:48.569041 11968 net.cpp:127] Top shape: 32 384 12 12 (1769472)
I0502 02:42:48.569046 11968 layer_factory.hpp:74] Creating layer conv3
I0502 02:42:48.569053 11968 net.cpp:90] Creating Layer conv3
I0502 02:42:48.569057 11968 net.cpp:410] conv3 <- norm2
I0502 02:42:48.569064 11968 net.cpp:368] conv3 -> conv3
I0502 02:42:48.569072 11968 net.cpp:120] Setting up conv3
I0502 02:42:48.759706 11968 net.cpp:127] Top shape: 32 512 10 10 (1638400)
I0502 02:42:48.759737 11968 layer_factory.hpp:74] Creating layer relu3
I0502 02:42:48.759753 11968 net.cpp:90] Creating Layer relu3
I0502 02:42:48.759760 11968 net.cpp:410] relu3 <- conv3
I0502 02:42:48.759768 11968 net.cpp:357] relu3 -> conv3 (in-place)
I0502 02:42:48.759778 11968 net.cpp:120] Setting up relu3
I0502 02:42:48.759846 11968 net.cpp:127] Top shape: 32 512 10 10 (1638400)
I0502 02:42:48.759853 11968 layer_factory.hpp:74] Creating layer conv4
I0502 02:42:48.759863 11968 net.cpp:90] Creating Layer conv4
I0502 02:42:48.759868 11968 net.cpp:410] conv4 <- conv3
I0502 02:42:48.759876 11968 net.cpp:368] conv4 -> conv4
I0502 02:42:48.759883 11968 net.cpp:120] Setting up conv4
I0502 02:42:49.031296 11968 net.cpp:127] Top shape: 32 1024 8 8 (2097152)
I0502 02:42:49.031327 11968 layer_factory.hpp:74] Creating layer relu4
I0502 02:42:49.031342 11968 net.cpp:90] Creating Layer relu4
I0502 02:42:49.031347 11968 net.cpp:410] relu4 <- conv4
I0502 02:42:49.031357 11968 net.cpp:357] relu4 -> conv4 (in-place)
I0502 02:42:49.031365 11968 net.cpp:120] Setting up relu4
I0502 02:42:49.031584 11968 net.cpp:127] Top shape: 32 1024 8 8 (2097152)
I0502 02:42:49.031595 11968 layer_factory.hpp:74] Creating layer conv5
I0502 02:42:49.031606 11968 net.cpp:90] Creating Layer conv5
I0502 02:42:49.031611 11968 net.cpp:410] conv5 <- conv4
I0502 02:42:49.031618 11968 net.cpp:368] conv5 -> conv5
I0502 02:42:49.031627 11968 net.cpp:120] Setting up conv5
I0502 02:42:49.207505 11968 net.cpp:127] Top shape: 32 384 6 6 (442368)
I0502 02:42:49.207543 11968 layer_factory.hpp:74] Creating layer relu5
I0502 02:42:49.207556 11968 net.cpp:90] Creating Layer relu5
I0502 02:42:49.207561 11968 net.cpp:410] relu5 <- conv5
I0502 02:42:49.207569 11968 net.cpp:357] relu5 -> conv5 (in-place)
I0502 02:42:49.207578 11968 net.cpp:120] Setting up relu5
I0502 02:42:49.207649 11968 net.cpp:127] Top shape: 32 384 6 6 (442368)
I0502 02:42:49.207656 11968 layer_factory.hpp:74] Creating layer pool5
I0502 02:42:49.207667 11968 net.cpp:90] Creating Layer pool5
I0502 02:42:49.207705 11968 net.cpp:410] pool5 <- conv5
I0502 02:42:49.207715 11968 net.cpp:368] pool5 -> pool5
I0502 02:42:49.207722 11968 net.cpp:120] Setting up pool5
I0502 02:42:49.207813 11968 net.cpp:127] Top shape: 32 384 3 3 (110592)
I0502 02:42:49.207823 11968 layer_factory.hpp:74] Creating layer fc6
I0502 02:42:49.207839 11968 net.cpp:90] Creating Layer fc6
I0502 02:42:49.207842 11968 net.cpp:410] fc6 <- pool5
I0502 02:42:49.207849 11968 net.cpp:368] fc6 -> fc6
I0502 02:42:49.207861 11968 net.cpp:120] Setting up fc6
I0502 02:42:49.238993 11968 net.cpp:127] Top shape: 32 256 (8192)
I0502 02:42:49.239008 11968 layer_factory.hpp:74] Creating layer relu6
I0502 02:42:49.239015 11968 net.cpp:90] Creating Layer relu6
I0502 02:42:49.239019 11968 net.cpp:410] relu6 <- fc6
I0502 02:42:49.239029 11968 net.cpp:357] relu6 -> fc6 (in-place)
I0502 02:42:49.239037 11968 net.cpp:120] Setting up relu6
I0502 02:42:49.239111 11968 net.cpp:127] Top shape: 32 256 (8192)
I0502 02:42:49.239119 11968 layer_factory.hpp:74] Creating layer drop6
I0502 02:42:49.239130 11968 net.cpp:90] Creating Layer drop6
I0502 02:42:49.239133 11968 net.cpp:410] drop6 <- fc6
I0502 02:42:49.239140 11968 net.cpp:357] drop6 -> fc6 (in-place)
I0502 02:42:49.239148 11968 net.cpp:120] Setting up drop6
I0502 02:42:49.239159 11968 net.cpp:127] Top shape: 32 256 (8192)
I0502 02:42:49.239169 11968 layer_factory.hpp:74] Creating layer fc7
I0502 02:42:49.239176 11968 net.cpp:90] Creating Layer fc7
I0502 02:42:49.239181 11968 net.cpp:410] fc7 <- fc6
I0502 02:42:49.239187 11968 net.cpp:368] fc7 -> fc7
I0502 02:42:49.239194 11968 net.cpp:120] Setting up fc7
I0502 02:42:49.239799 11968 net.cpp:127] Top shape: 32 64 (2048)
I0502 02:42:49.239809 11968 layer_factory.hpp:74] Creating layer relu7
I0502 02:42:49.239816 11968 net.cpp:90] Creating Layer relu7
I0502 02:42:49.239820 11968 net.cpp:410] relu7 <- fc7
I0502 02:42:49.239830 11968 net.cpp:357] relu7 -> fc7 (in-place)
I0502 02:42:49.239835 11968 net.cpp:120] Setting up relu7
I0502 02:42:49.240066 11968 net.cpp:127] Top shape: 32 64 (2048)
I0502 02:42:49.240080 11968 layer_factory.hpp:74] Creating layer drop7
I0502 02:42:49.240088 11968 net.cpp:90] Creating Layer drop7
I0502 02:42:49.240092 11968 net.cpp:410] drop7 <- fc7
I0502 02:42:49.240098 11968 net.cpp:357] drop7 -> fc7 (in-place)
I0502 02:42:49.240113 11968 net.cpp:120] Setting up drop7
I0502 02:42:49.240121 11968 net.cpp:127] Top shape: 32 64 (2048)
I0502 02:42:49.240126 11968 layer_factory.hpp:74] Creating layer fc8-ucf
I0502 02:42:49.240134 11968 net.cpp:90] Creating Layer fc8-ucf
I0502 02:42:49.240137 11968 net.cpp:410] fc8-ucf <- fc7
I0502 02:42:49.240144 11968 net.cpp:368] fc8-ucf -> fc8-ucf
I0502 02:42:49.240154 11968 net.cpp:120] Setting up fc8-ucf
I0502 02:42:49.240190 11968 net.cpp:127] Top shape: 32 10 (320)
I0502 02:42:49.240197 11968 layer_factory.hpp:74] Creating layer fc8-ucf_fc8-ucf_0_split
I0502 02:42:49.240205 11968 net.cpp:90] Creating Layer fc8-ucf_fc8-ucf_0_split
I0502 02:42:49.240208 11968 net.cpp:410] fc8-ucf_fc8-ucf_0_split <- fc8-ucf
I0502 02:42:49.240214 11968 net.cpp:368] fc8-ucf_fc8-ucf_0_split -> fc8-ucf_fc8-ucf_0_split_0
I0502 02:42:49.240221 11968 net.cpp:368] fc8-ucf_fc8-ucf_0_split -> fc8-ucf_fc8-ucf_0_split_1
I0502 02:42:49.240227 11968 net.cpp:120] Setting up fc8-ucf_fc8-ucf_0_split
I0502 02:42:49.240234 11968 net.cpp:127] Top shape: 32 10 (320)
I0502 02:42:49.240239 11968 net.cpp:127] Top shape: 32 10 (320)
I0502 02:42:49.240243 11968 layer_factory.hpp:74] Creating layer loss
I0502 02:42:49.240252 11968 net.cpp:90] Creating Layer loss
I0502 02:42:49.240257 11968 net.cpp:410] loss <- fc8-ucf_fc8-ucf_0_split_0
I0502 02:42:49.240262 11968 net.cpp:410] loss <- label_data_1_split_0
I0502 02:42:49.240267 11968 net.cpp:368] loss -> loss
I0502 02:42:49.240277 11968 net.cpp:120] Setting up loss
I0502 02:42:49.240286 11968 layer_factory.hpp:74] Creating layer loss
…
I0502 02:42:49.241272 11968 solver.cpp:154] Creating test net (#0) specified by net file: Acre/ac_train_test.prototxt
I0502 02:42:49.241319 11968 net.cpp:287] The NetState phase (1) differed from the phase (0) specified by a rule in layer data
I0502 02:42:49.241544 11968 net.cpp:42] Initializing net from parameters: 
name: "ac_re"
state {
  phase: TEST
}
layer {
  name: "data"
  type: "Data"
  top: "data"
  top: "label"
  include {
    phase: TEST
  }
  transform_param {
    mirror: false
    crop_size: 227
    mean_value: 103.939
  }
  data_param {
    source: "Acre/Acre_test_lmdb"
    batch_size: 64
    backend: LMDB
  }
}
layer {
  name: "conv1"
  type: "Convolution"
  bottom: "data"
  top: "conv1"
  param {
    lr_mult: 1
    decay_mult: 1
  }
  param {
    lr_mult: 2
    decay_mult: 0
  }
  convolution_param {
    num_output: 96
    kernel_size: 11
    stride: 2
    weight_filler {
      type: "gaussian"
      std: 0.01
    }
    bias_filler {
      type: "constant"
      value: 0.1
    }
  }
}
layer {
  name: "relu1"
  type: "ReLU"
  bottom: "conv1"
  top: "conv1"
}
layer {
  name: "pool1"
  type: "Pooling"
  bottom: "conv1"
  top: "pool1"
  pooling_param {
    pool: MAX
    kernel_size: 3
    stride: 2
  }
}
layer {
  name: "norm1"
  type: "LRN"
  bottom: "pool1"
  top: "norm1"
  lrn_param {
    local_size: 5
    alpha: 0.0001
    beta: 0.75
  }
}
layer {
  name: "conv2"
  type: "Convolution"
  bottom: "norm1"
  top: "conv2"
  param {
    lr_mult: 1
    decay_mult: 1
  }
  param {
    lr_mult: 2
    decay_mult: 0
  }
  convolution_param {
    num_output: 384
    kernel_size: 7
    group: 2
    stride: 2
    weight_filler {
      type: "gaussian"
      std: 0.01
    }
    bias_filler {
      type: "constant"
      value: 1
    }
  }
}
layer {
  name: "relu2"
  type: "ReLU"
  bottom: "conv2"
  top: "conv2"
}
layer {
  name: "pool2"
  type: "Pooling"
  bottom: "conv2"
  top: "pool2"
  pooling_param {
    pool: MAX
    kernel_size: 3
    stride: 2
  }
}
layer {
  name: "norm2"
  type: "LRN"
  bottom: "pool2"
  top: "norm2"
  lrn_param {
    local_size: 5
    alpha: 0.0001
    beta: 0.75
  }
}
layer {
  name: "conv3"
  type: "Convolution"
  bottom: "norm2"
  top: "conv3"
  param {
    lr_mult: 1
    decay_mult: 1
  }
  param {
    lr_mult: 2
    decay_mult: 0
  }
  convolution_param {
    num_output: 512
    pad: 1
    kernel_size: 5
    weight_filler {
      type: "gaussian"
      std: 0.01
    }
    bias_filler {
      type: "constant"
      value: 0.1
    }
  }
}
layer {
  name: "relu3"
  type: "ReLU"
  bottom: "conv3"
  top: "conv3"
}
layer {
  name: "conv4"
  type: "Convolution"
  bottom: "conv3"
  top: "conv4"
  param {
    lr_mult: 1
    decay_mult: 1
  }
  param {
    lr_mult: 2
    decay_mult: 0
  }
  convolution_param {
    num_output: 1024
    pad: 1
    kernel_size: 5
    group: 2
    weight_filler {
      type: "gaussian"
      std: 0.01
    }
    bias_filler {
      type: "constant"
      value: 0.1
    }
  }
}
layer {
  name: "relu4"
  type: "ReLU"
  bottom: "conv4"
  top: "conv4"
}
layer {
  name: "conv5"
  type: "Convolution"
  bottom: "conv4"
  top: "conv5"
  param {
    lr_mult: 1
    decay_mult: 1
  }
  param {
    lr_mult: 2
    decay_mult: 0
  }
  convolution_param {
    num_output: 384
    pad: 1
    kernel_size: 5
    group: 2
    weight_filler {
      type: "gaussian"
      std: 0.01
    }
    bias_filler {
      type: "constant"
      value: 0.1
    }
  }
}
layer {
  name: "relu5"
  type: "ReLU"
  bottom: "conv5"
  top: "conv5"
}
layer {
  name: "pool5"
  type: "Pooling"
  bottom: "conv5"
  top: "pool5"
  pooling_param {
    pool: MAX
    kernel_size: 3
    stride: 2
  }
}
layer {
  name: "fc6"
  type: "InnerProduct"
  bottom: "pool5"
  top: "fc6"
  param {
    lr_mult: 1
    decay_mult: 1
  }
  param {
    lr_mult: 2
    decay_mult: 0
  }
  inner_product_param {
    num_output: 256
    weight_filler {
      type: "gaussian"
      std: 0.01
    }
    bias_filler {
      type: "constant"
      value: 0.1
    }
  }
}
layer {
  name: "relu6"
  type: "ReLU"
  bottom: "fc6"
  top: "fc6"
}
layer {
  name: "drop6"
  type: "Dropout"
  bottom: "fc6"
  top: "fc6"
  dropout_param {
    dropout_ratio: 0.5
  }
}
layer {
  name: "fc7"
  type: "InnerProduct"
  bottom: "fc6"
  top: "fc7"
  param {
    lr_mult: 1
    decay_mult: 1
  }
  param {
    lr_mult: 2
    decay_mult: 0
  }
  inner_product_param {
    num_output: 64
    weight_filler {
      type: "gaussian"
      std: 0.01
    }
    bias_filler {
      type: "constant"
      value: 0.1
    }
  }
}
layer {
  name: "relu7"
  type: "ReLU"
  bottom: "fc7"
  top: "fc7"
}
layer {
  name: "drop7"
  type: "Dropout"
  bottom: "fc7"
  top: "fc7"
  dropout_param {
    dropout_ratio: 0.5
  }
}
layer {
  name: "fc8-ucf"
  type: "InnerProduct"
  bottom: "fc7"
  top: "fc8-ucf"
  param {
    lr_mult: 10
    decay_mult: 1
  }
  param {
    lr_mult: 20
    decay_mult: 0
  }
  inner_product_param {
    num_output: 10
    weight_filler {
      type: "gaussian"
      std: 0.01
    }
    bias_filler {
      type: "constant"
      value: 0
    }
  }
}
layer {
  name: "loss"
  type: "SoftmaxWithLoss"
  bottom: "fc8-ucf"
  bottom: "label"
  top: "loss"
}
layer {
  name: "accuracy"
  type: "Accuracy"
  bottom: "fc8-ucf"
  bottom: "label"
  top: "accuracy"
}
I0502 02:42:49.241667 11968 layer_factory.hpp:74] Creating layer data
I0502 02:42:49.241678 11968 net.cpp:90] Creating Layer data
I0502 02:42:49.241684 11968 net.cpp:368] data -> data
I0502 02:42:49.241694 11968 net.cpp:368] data -> label
I0502 02:42:49.241701 11968 net.cpp:120] Setting up data
I0502 02:42:49.279692 11968 db_lmdb.cpp:22] Opened lmdb Acre/Acre_test_lmdb
I0502 02:42:49.325764 11968 data_layer.cpp:52] output data size: 64,10,227,227
I0502 02:42:49.406883 11968 net.cpp:127] Top shape: 64 10 227 227 (32978560)
I0502 02:42:49.406909 11968 net.cpp:127] Top shape: 64 (64)
I0502 02:42:49.406918 11968 layer_factory.hpp:74] Creating layer label_data_1_split
I0502 02:42:49.406930 11968 net.cpp:90] Creating Layer label_data_1_split
I0502 02:42:49.406936 11968 net.cpp:410] label_data_1_split <- label
I0502 02:42:49.406945 11968 net.cpp:368] label_data_1_split -> label_data_1_split_0
I0502 02:42:49.406958 11968 net.cpp:368] label_data_1_split -> label_data_1_split_1
I0502 02:42:49.406965 11968 net.cpp:120] Setting up label_data_1_split
I0502 02:42:49.406975 11968 net.cpp:127] Top shape: 64 (64)
I0502 02:42:49.406980 11968 net.cpp:127] Top shape: 64 (64)
I0502 02:42:49.406983 11968 layer_factory.hpp:74] Creating layer conv1
I0502 02:42:49.406994 11968 net.cpp:90] Creating Layer conv1
I0502 02:42:49.406999 11968 net.cpp:410] conv1 <- data
I0502 02:42:49.407006 11968 net.cpp:368] conv1 -> conv1
I0502 02:42:49.407014 11968 net.cpp:120] Setting up conv1
I0502 02:42:49.411837 11968 net.cpp:127] Top shape: 64 96 109 109 (72996864)
I0502 02:42:49.411860 11968 layer_factory.hpp:74] Creating layer relu1
I0502 02:42:49.411873 11968 net.cpp:90] Creating Layer relu1
I0502 02:42:49.411878 11968 net.cpp:410] relu1 <- conv1
I0502 02:42:49.411885 11968 net.cpp:357] relu1 -> conv1 (in-place)
I0502 02:42:49.411892 11968 net.cpp:120] Setting up relu1
I0502 02:42:49.411964 11968 net.cpp:127] Top shape: 64 96 109 109 (72996864)
I0502 02:42:49.411972 11968 layer_factory.hpp:74] Creating layer pool1
I0502 02:42:49.411980 11968 net.cpp:90] Creating Layer pool1
I0502 02:42:49.411984 11968 net.cpp:410] pool1 <- conv1
I0502 02:42:49.411990 11968 net.cpp:368] pool1 -> pool1
I0502 02:42:49.411998 11968 net.cpp:120] Setting up pool1
I0502 02:42:49.412078 11968 net.cpp:127] Top shape: 64 96 54 54 (17915904)
I0502 02:42:49.412087 11968 layer_factory.hpp:74] Creating layer norm1
I0502 02:42:49.412096 11968 net.cpp:90] Creating Layer norm1
I0502 02:42:49.412112 11968 net.cpp:410] norm1 <- pool1
I0502 02:42:49.412120 11968 net.cpp:368] norm1 -> norm1
I0502 02:42:49.412127 11968 net.cpp:120] Setting up norm1
I0502 02:42:49.412135 11968 net.cpp:127] Top shape: 64 96 54 54 (17915904)
I0502 02:42:49.412142 11968 layer_factory.hpp:74] Creating layer conv2
I0502 02:42:49.412149 11968 net.cpp:90] Creating Layer conv2
I0502 02:42:49.412153 11968 net.cpp:410] conv2 <- norm1
I0502 02:42:49.412159 11968 net.cpp:368] conv2 -> conv2
I0502 02:42:49.412168 11968 net.cpp:120] Setting up conv2
I0502 02:42:49.445662 11968 net.cpp:127] Top shape: 64 384 24 24 (14155776)
I0502 02:42:49.445693 11968 layer_factory.hpp:74] Creating layer relu2
I0502 02:42:49.445705 11968 net.cpp:90] Creating Layer relu2
I0502 02:42:49.445710 11968 net.cpp:410] relu2 <- conv2
I0502 02:42:49.445719 11968 net.cpp:357] relu2 -> conv2 (in-place)
I0502 02:42:49.445726 11968 net.cpp:120] Setting up relu2
I0502 02:42:49.445947 11968 net.cpp:127] Top shape: 64 384 24 24 (14155776)
I0502 02:42:49.445958 11968 layer_factory.hpp:74] Creating layer pool2
I0502 02:42:49.445969 11968 net.cpp:90] Creating Layer pool2
I0502 02:42:49.445974 11968 net.cpp:410] pool2 <- conv2
I0502 02:42:49.445981 11968 net.cpp:368] pool2 -> pool2
I0502 02:42:49.445989 11968 net.cpp:120] Setting up pool2
I0502 02:42:49.446064 11968 net.cpp:127] Top shape: 64 384 12 12 (3538944)
I0502 02:42:49.446074 11968 layer_factory.hpp:74] Creating layer norm2
I0502 02:42:49.446081 11968 net.cpp:90] Creating Layer norm2
I0502 02:42:49.446085 11968 net.cpp:410] norm2 <- pool2
I0502 02:42:49.446091 11968 net.cpp:368] norm2 -> norm2
I0502 02:42:49.446099 11968 net.cpp:120] Setting up norm2
I0502 02:42:49.446132 11968 net.cpp:127] Top shape: 64 384 12 12 (3538944)
I0502 02:42:49.446137 11968 layer_factory.hpp:74] Creating layer conv3
I0502 02:42:49.446146 11968 net.cpp:90] Creating Layer conv3
I0502 02:42:49.446151 11968 net.cpp:410] conv3 <- norm2
I0502 02:42:49.446157 11968 net.cpp:368] conv3 -> conv3
I0502 02:42:49.446166 11968 net.cpp:120] Setting up conv3
I0502 02:42:49.622843 11968 net.cpp:127] Top shape: 64 512 10 10 (3276800)
I0502 02:42:49.622872 11968 layer_factory.hpp:74] Creating layer relu3
I0502 02:42:49.622887 11968 net.cpp:90] Creating Layer relu3
I0502 02:42:49.622894 11968 net.cpp:410] relu3 <- conv3
I0502 02:42:49.622901 11968 net.cpp:357] relu3 -> conv3 (in-place)
I0502 02:42:49.622910 11968 net.cpp:120] Setting up relu3
I0502 02:42:49.622983 11968 net.cpp:127] Top shape: 64 512 10 10 (3276800)
I0502 02:42:49.622992 11968 layer_factory.hpp:74] Creating layer conv4
I0502 02:42:49.623002 11968 net.cpp:90] Creating Layer conv4
I0502 02:42:49.623005 11968 net.cpp:410] conv4 <- conv3
I0502 02:42:49.623013 11968 net.cpp:368] conv4 -> conv4
I0502 02:42:49.623020 11968 net.cpp:120] Setting up conv4
I0502 02:42:49.857837 11968 net.cpp:127] Top shape: 64 1024 8 8 (4194304)
I0502 02:42:49.857866 11968 layer_factory.hpp:74] Creating layer relu4
I0502 02:42:49.857880 11968 net.cpp:90] Creating Layer relu4
I0502 02:42:49.857887 11968 net.cpp:410] relu4 <- conv4
I0502 02:42:49.857894 11968 net.cpp:357] relu4 -> conv4 (in-place)
I0502 02:42:49.857903 11968 net.cpp:120] Setting up relu4
I0502 02:42:49.858127 11968 net.cpp:127] Top shape: 64 1024 8 8 (4194304)
I0502 02:42:49.858139 11968 layer_factory.hpp:74] Creating layer conv5
I0502 02:42:49.858150 11968 net.cpp:90] Creating Layer conv5
I0502 02:42:49.858155 11968 net.cpp:410] conv5 <- conv4
I0502 02:42:49.858161 11968 net.cpp:368] conv5 -> conv5
I0502 02:42:49.858170 11968 net.cpp:120] Setting up conv5
I0502 02:42:50.085582 11968 net.cpp:127] Top shape: 64 384 6 6 (884736)
I0502 02:42:50.085618 11968 layer_factory.hpp:74] Creating layer relu5
I0502 02:42:50.085629 11968 net.cpp:90] Creating Layer relu5
I0502 02:42:50.085635 11968 net.cpp:410] relu5 <- conv5
I0502 02:42:50.085644 11968 net.cpp:357] relu5 -> conv5 (in-place)
I0502 02:42:50.085652 11968 net.cpp:120] Setting up relu5
I0502 02:42:50.085723 11968 net.cpp:127] Top shape: 64 384 6 6 (884736)
I0502 02:42:50.085732 11968 layer_factory.hpp:74] Creating layer pool5
I0502 02:42:50.085743 11968 net.cpp:90] Creating Layer pool5
I0502 02:42:50.085748 11968 net.cpp:410] pool5 <- conv5
I0502 02:42:50.085755 11968 net.cpp:368] pool5 -> pool5
I0502 02:42:50.085762 11968 net.cpp:120] Setting up pool5
I0502 02:42:50.085850 11968 net.cpp:127] Top shape: 64 384 3 3 (221184)
I0502 02:42:50.085856 11968 layer_factory.hpp:74] Creating layer fc6
I0502 02:42:50.085865 11968 net.cpp:90] Creating Layer fc6
I0502 02:42:50.085870 11968 net.cpp:410] fc6 <- pool5
I0502 02:42:50.085876 11968 net.cpp:368] fc6 -> fc6
I0502 02:42:50.085885 11968 net.cpp:120] Setting up fc6
I0502 02:42:50.117581 11968 net.cpp:127] Top shape: 64 256 (16384)
I0502 02:42:50.117604 11968 layer_factory.hpp:74] Creating layer relu6
I0502 02:42:50.117619 11968 net.cpp:90] Creating Layer relu6
I0502 02:42:50.117624 11968 net.cpp:410] relu6 <- fc6
I0502 02:42:50.117631 11968 net.cpp:357] relu6 -> fc6 (in-place)
I0502 02:42:50.117640 11968 net.cpp:120] Setting up relu6
I0502 02:42:50.117738 11968 net.cpp:127] Top shape: 64 256 (16384)
I0502 02:42:50.117745 11968 layer_factory.hpp:74] Creating layer drop6
I0502 02:42:50.117753 11968 net.cpp:90] Creating Layer drop6
I0502 02:42:50.117758 11968 net.cpp:410] drop6 <- fc6
I0502 02:42:50.117764 11968 net.cpp:357] drop6 -> fc6 (in-place)
I0502 02:42:50.117770 11968 net.cpp:120] Setting up drop6
I0502 02:42:50.117779 11968 net.cpp:127] Top shape: 64 256 (16384)
I0502 02:42:50.117782 11968 layer_factory.hpp:74] Creating layer fc7
I0502 02:42:50.117790 11968 net.cpp:90] Creating Layer fc7
I0502 02:42:50.117794 11968 net.cpp:410] fc7 <- fc6
I0502 02:42:50.117801 11968 net.cpp:368] fc7 -> fc7
I0502 02:42:50.117843 11968 net.cpp:120] Setting up fc7
I0502 02:42:50.118444 11968 net.cpp:127] Top shape: 64 64 (4096)
I0502 02:42:50.118455 11968 layer_factory.hpp:74] Creating layer relu7
I0502 02:42:50.118463 11968 net.cpp:90] Creating Layer relu7
I0502 02:42:50.118466 11968 net.cpp:410] relu7 <- fc7
I0502 02:42:50.118475 11968 net.cpp:357] relu7 -> fc7 (in-place)
I0502 02:42:50.118482 11968 net.cpp:120] Setting up relu7
I0502 02:42:50.118779 11968 net.cpp:127] Top shape: 64 64 (4096)
I0502 02:42:50.118790 11968 layer_factory.hpp:74] Creating layer drop7
I0502 02:42:50.118798 11968 net.cpp:90] Creating Layer drop7
I0502 02:42:50.118801 11968 net.cpp:410] drop7 <- fc7
I0502 02:42:50.118811 11968 net.cpp:357] drop7 -> fc7 (in-place)
I0502 02:42:50.118818 11968 net.cpp:120] Setting up drop7
I0502 02:42:50.118825 11968 net.cpp:127] Top shape: 64 64 (4096)
I0502 02:42:50.118829 11968 layer_factory.hpp:74] Creating layer fc8-ucf
I0502 02:42:50.118836 11968 net.cpp:90] Creating Layer fc8-ucf
I0502 02:42:50.118841 11968 net.cpp:410] fc8-ucf <- fc7
I0502 02:42:50.118847 11968 net.cpp:368] fc8-ucf -> fc8-ucf
I0502 02:42:50.118857 11968 net.cpp:120] Setting up fc8-ucf
I0502 02:42:50.118893 11968 net.cpp:127] Top shape: 64 10 (640)
I0502 02:42:50.118901 11968 layer_factory.hpp:74] Creating layer fc8-ucf_fc8-ucf_0_split
I0502 02:42:50.118907 11968 net.cpp:90] Creating Layer fc8-ucf_fc8-ucf_0_split
I0502 02:42:50.118912 11968 net.cpp:410] fc8-ucf_fc8-ucf_0_split <- fc8-ucf
I0502 02:42:50.118918 11968 net.cpp:368] fc8-ucf_fc8-ucf_0_split -> fc8-ucf_fc8-ucf_0_split_0
I0502 02:42:50.118926 11968 net.cpp:368] fc8-ucf_fc8-ucf_0_split -> fc8-ucf_fc8-ucf_0_split_1
I0502 02:42:50.118932 11968 net.cpp:120] Setting up fc8-ucf_fc8-ucf_0_split
I0502 02:42:50.118938 11968 net.cpp:127] Top shape: 64 10 (640)
I0502 02:42:50.118943 11968 net.cpp:127] Top shape: 64 10 (640)
I0502 02:42:50.118947 11968 layer_factory.hpp:74] Creating layer loss
I0502 02:42:50.118953 11968 net.cpp:90] Creating Layer loss
I0502 02:42:50.118957 11968 net.cpp:410] loss <- fc8-ucf_fc8-ucf_0_split_0
I0502 02:42:50.118963 11968 net.cpp:410] loss <- label_data_1_split_0
I0502 02:42:50.118968 11968 net.cpp:368] loss -> loss
I0502 02:42:50.118974 11968 net.cpp:120] Setting up loss
I0502 02:42:50.118981 11968 layer_factory.hpp:74] Creating layer loss
…
