…
I0501 02:16:27.488632 31533 solver.cpp:70] Creating training net from net file: Acre/ac_train_test.prototxt
I0501 02:16:27.489281 31533 net.cpp:287] The NetState phase (0) differed from the phase (1) specified by a rule in layer data
I0501 02:16:27.489516 31533 net.cpp:42] Initializing net from parameters: 
name: "ac_re"
state {
  phase: TRAIN
}
layer {
  name: "data"
  type: "Data"
  top: "data"
  top: "label"
  include {
    phase: TRAIN
  }
  transform_param {
    crop_size: 227
    mean_value: 103.939
  }
  data_param {
    source: "Acre/Acre_train_lmdb"
    batch_size: 32
    backend: LMDB
  }
}
layer {
  name: "conv1"
  type: "Convolution"
  bottom: "data"
  top: "conv1"
  param {
    lr_mult: 1
    decay_mult: 1
  }
  param {
    lr_mult: 2
    decay_mult: 0
  }
  convolution_param {
    num_output: 96
    kernel_size: 11
    stride: 2
    weight_filler {
      type: "gaussian"
      std: 0.01
    }
    bias_filler {
      type: "constant"
      value: 0.1
    }
  }
}
layer {
  name: "relu1"
  type: "ReLU"
  bottom: "conv1"
  top: "conv1"
}
layer {
  name: "pool1"
  type: "Pooling"
  bottom: "conv1"
  top: "pool1"
  pooling_param {
    pool: MAX
    kernel_size: 3
    stride: 2
  }
}
layer {
  name: "norm1"
  type: "LRN"
  bottom: "pool1"
  top: "norm1"
  lrn_param {
    local_size: 5
    alpha: 0.0001
    beta: 0.75
  }
}
layer {
  name: "conv2"
  type: "Convolution"
  bottom: "norm1"
  top: "conv2"
  param {
    lr_mult: 1
    decay_mult: 1
  }
  param {
    lr_mult: 2
    decay_mult: 0
  }
  convolution_param {
    num_output: 384
    kernel_size: 7
    group: 2
    stride: 2
    weight_filler {
      type: "gaussian"
      std: 0.01
    }
    bias_filler {
      type: "constant"
      value: 1
    }
  }
}
layer {
  name: "relu2"
  type: "ReLU"
  bottom: "conv2"
  top: "conv2"
}
layer {
  name: "pool2"
  type: "Pooling"
  bottom: "conv2"
  top: "pool2"
  pooling_param {
    pool: MAX
    kernel_size: 3
    stride: 2
  }
}
layer {
  name: "norm2"
  type: "LRN"
  bottom: "pool2"
  top: "norm2"
  lrn_param {
    local_size: 5
    alpha: 0.0001
    beta: 0.75
  }
}
layer {
  name: "conv3"
  type: "Convolution"
  bottom: "norm2"
  top: "conv3"
  param {
    lr_mult: 1
    decay_mult: 1
  }
  param {
    lr_mult: 2
    decay_mult: 0
  }
  convolution_param {
    num_output: 512
    pad: 1
    kernel_size: 5
    weight_filler {
      type: "gaussian"
      std: 0.01
    }
    bias_filler {
      type: "constant"
      value: 0.1
    }
  }
}
layer {
  name: "relu3"
  type: "ReLU"
  bottom: "conv3"
  top: "conv3"
}
layer {
  name: "conv4"
  type: "Convolution"
  bottom: "conv3"
  top: "conv4"
  param {
    lr_mult: 1
    decay_mult: 1
  }
  param {
    lr_mult: 2
    decay_mult: 0
  }
  convolution_param {
    num_output: 1024
    pad: 1
    kernel_size: 5
    group: 2
    weight_filler {
      type: "gaussian"
      std: 0.01
    }
    bias_filler {
      type: "constant"
      value: 0.1
    }
  }
}
layer {
  name: "relu4"
  type: "ReLU"
  bottom: "conv4"
  top: "conv4"
}
layer {
  name: "conv5"
  type: "Convolution"
  bottom: "conv4"
  top: "conv5"
  param {
    lr_mult: 1
    decay_mult: 1
  }
  param {
    lr_mult: 2
    decay_mult: 0
  }
  convolution_param {
    num_output: 384
    pad: 1
    kernel_size: 5
    group: 2
    weight_filler {
      type: "gaussian"
      std: 0.01
    }
    bias_filler {
      type: "constant"
      value: 0.1
    }
  }
}
layer {
  name: "relu5"
  type: "ReLU"
  bottom: "conv5"
  top: "conv5"
}
layer {
  name: "pool5"
  type: "Pooling"
  bottom: "conv5"
  top: "pool5"
  pooling_param {
    pool: MAX
    kernel_size: 3
    stride: 2
  }
}
layer {
  name: "fc6"
  type: "InnerProduct"
  bottom: "pool5"
  top: "fc6"
  param {
    lr_mult: 1
    decay_mult: 1
  }
  param {
    lr_mult: 2
    decay_mult: 0
  }
  inner_product_param {
    num_output: 256
    weight_filler {
      type: "gaussian"
      std: 0.01
    }
    bias_filler {
      type: "constant"
      value: 0.1
    }
  }
}
layer {
  name: "relu6"
  type: "ReLU"
  bottom: "fc6"
  top: "fc6"
}
layer {
  name: "drop6"
  type: "Dropout"
  bottom: "fc6"
  top: "fc6"
  dropout_param {
    dropout_ratio: 0.5
  }
}
layer {
  name: "fc7"
  type: "InnerProduct"
  bottom: "fc6"
  top: "fc7"
  param {
    lr_mult: 1
    decay_mult: 1
  }
  param {
    lr_mult: 2
    decay_mult: 0
  }
  inner_product_param {
    num_output: 64
    weight_filler {
      type: "gaussian"
      std: 0.01
    }
    bias_filler {
      type: "constant"
      value: 0.1
    }
  }
}
layer {
  name: "relu7"
  type: "ReLU"
  bottom: "fc7"
  top: "fc7"
}
layer {
  name: "drop7"
  type: "Dropout"
  bottom: "fc7"
  top: "fc7"
  dropout_param {
    dropout_ratio: 0.5
  }
}
layer {
  name: "fc8-ucf"
  type: "InnerProduct"
  bottom: "fc7"
  top: "fc8-ucf"
  param {
    lr_mult: 10
    decay_mult: 1
  }
  param {
    lr_mult: 20
    decay_mult: 0
  }
  inner_product_param {
    num_output: 10
    weight_filler {
      type: "gaussian"
      std: 0.01
    }
    bias_filler {
      type: "constant"
      value: 0
    }
  }
}
layer {
  name: "loss"
  type: "SoftmaxWithLoss"
  bottom: "fc8-ucf"
  bottom: "label"
  top: "loss"
}
layer {
  name: "accuracy"
  type: "Accuracy"
  bottom: "fc8-ucf"
  bottom: "label"
  top: "accuracy"
}
I0501 02:16:27.489688 31533 layer_factory.hpp:74] Creating layer data
I0501 02:16:27.489711 31533 net.cpp:90] Creating Layer data
I0501 02:16:27.489720 31533 net.cpp:368] data -> data
I0501 02:16:27.489750 31533 net.cpp:368] data -> label
I0501 02:16:27.489763 31533 net.cpp:120] Setting up data
I0501 02:16:27.490195 31533 db_lmdb.cpp:22] Opened lmdb Acre/Acre_train_lmdb
I0501 02:16:27.491822 31533 data_layer.cpp:52] output data size: 32,18,227,227
I0501 02:16:27.649448 31533 net.cpp:127] Top shape: 32 18 227 227 (29680704)
I0501 02:16:27.649476 31533 net.cpp:127] Top shape: 32 (32)
I0501 02:16:27.649485 31533 layer_factory.hpp:74] Creating layer label_data_1_split
I0501 02:16:27.649500 31533 net.cpp:90] Creating Layer label_data_1_split
I0501 02:16:27.649507 31533 net.cpp:410] label_data_1_split <- label
I0501 02:16:27.649524 31533 net.cpp:368] label_data_1_split -> label_data_1_split_0
I0501 02:16:27.649536 31533 net.cpp:368] label_data_1_split -> label_data_1_split_1
I0501 02:16:27.649544 31533 net.cpp:120] Setting up label_data_1_split
I0501 02:16:27.649554 31533 net.cpp:127] Top shape: 32 (32)
I0501 02:16:27.649559 31533 net.cpp:127] Top shape: 32 (32)
I0501 02:16:27.649564 31533 layer_factory.hpp:74] Creating layer conv1
I0501 02:16:27.649581 31533 net.cpp:90] Creating Layer conv1
I0501 02:16:27.649586 31533 net.cpp:410] conv1 <- data
I0501 02:16:27.649595 31533 net.cpp:368] conv1 -> conv1
I0501 02:16:27.649606 31533 net.cpp:120] Setting up conv1
I0501 02:16:28.116591 31533 net.cpp:127] Top shape: 32 96 109 109 (36498432)
I0501 02:16:28.116628 31533 layer_factory.hpp:74] Creating layer relu1
I0501 02:16:28.116642 31533 net.cpp:90] Creating Layer relu1
I0501 02:16:28.116648 31533 net.cpp:410] relu1 <- conv1
I0501 02:16:28.116660 31533 net.cpp:357] relu1 -> conv1 (in-place)
I0501 02:16:28.116670 31533 net.cpp:120] Setting up relu1
I0501 02:16:28.116749 31533 net.cpp:127] Top shape: 32 96 109 109 (36498432)
I0501 02:16:28.116757 31533 layer_factory.hpp:74] Creating layer pool1
I0501 02:16:28.116770 31533 net.cpp:90] Creating Layer pool1
I0501 02:16:28.116775 31533 net.cpp:410] pool1 <- conv1
I0501 02:16:28.116782 31533 net.cpp:368] pool1 -> pool1
I0501 02:16:28.116791 31533 net.cpp:120] Setting up pool1
I0501 02:16:28.117023 31533 net.cpp:127] Top shape: 32 96 54 54 (8957952)
I0501 02:16:28.117035 31533 layer_factory.hpp:74] Creating layer norm1
I0501 02:16:28.117044 31533 net.cpp:90] Creating Layer norm1
I0501 02:16:28.117048 31533 net.cpp:410] norm1 <- pool1
I0501 02:16:28.117055 31533 net.cpp:368] norm1 -> norm1
I0501 02:16:28.117086 31533 net.cpp:120] Setting up norm1
I0501 02:16:28.117099 31533 net.cpp:127] Top shape: 32 96 54 54 (8957952)
I0501 02:16:28.117103 31533 layer_factory.hpp:74] Creating layer conv2
I0501 02:16:28.117112 31533 net.cpp:90] Creating Layer conv2
I0501 02:16:28.117117 31533 net.cpp:410] conv2 <- norm1
I0501 02:16:28.117125 31533 net.cpp:368] conv2 -> conv2
I0501 02:16:28.117132 31533 net.cpp:120] Setting up conv2
I0501 02:16:28.152019 31533 net.cpp:127] Top shape: 32 384 24 24 (7077888)
I0501 02:16:28.152055 31533 layer_factory.hpp:74] Creating layer relu2
I0501 02:16:28.152066 31533 net.cpp:90] Creating Layer relu2
I0501 02:16:28.152073 31533 net.cpp:410] relu2 <- conv2
I0501 02:16:28.152081 31533 net.cpp:357] relu2 -> conv2 (in-place)
I0501 02:16:28.152093 31533 net.cpp:120] Setting up relu2
I0501 02:16:28.152180 31533 net.cpp:127] Top shape: 32 384 24 24 (7077888)
I0501 02:16:28.152189 31533 layer_factory.hpp:74] Creating layer pool2
I0501 02:16:28.152201 31533 net.cpp:90] Creating Layer pool2
I0501 02:16:28.152205 31533 net.cpp:410] pool2 <- conv2
I0501 02:16:28.152212 31533 net.cpp:368] pool2 -> pool2
I0501 02:16:28.152221 31533 net.cpp:120] Setting up pool2
I0501 02:16:28.152323 31533 net.cpp:127] Top shape: 32 384 12 12 (1769472)
I0501 02:16:28.152333 31533 layer_factory.hpp:74] Creating layer norm2
I0501 02:16:28.152341 31533 net.cpp:90] Creating Layer norm2
I0501 02:16:28.152349 31533 net.cpp:410] norm2 <- pool2
I0501 02:16:28.152362 31533 net.cpp:368] norm2 -> norm2
I0501 02:16:28.152375 31533 net.cpp:120] Setting up norm2
I0501 02:16:28.152390 31533 net.cpp:127] Top shape: 32 384 12 12 (1769472)
I0501 02:16:28.152400 31533 layer_factory.hpp:74] Creating layer conv3
I0501 02:16:28.152413 31533 net.cpp:90] Creating Layer conv3
I0501 02:16:28.152422 31533 net.cpp:410] conv3 <- norm2
I0501 02:16:28.152436 31533 net.cpp:368] conv3 -> conv3
I0501 02:16:28.152449 31533 net.cpp:120] Setting up conv3
I0501 02:16:28.337690 31533 net.cpp:127] Top shape: 32 512 10 10 (1638400)
I0501 02:16:28.337729 31533 layer_factory.hpp:74] Creating layer relu3
I0501 02:16:28.337748 31533 net.cpp:90] Creating Layer relu3
I0501 02:16:28.337757 31533 net.cpp:410] relu3 <- conv3
I0501 02:16:28.337770 31533 net.cpp:357] relu3 -> conv3 (in-place)
I0501 02:16:28.337785 31533 net.cpp:120] Setting up relu3
I0501 02:16:28.337874 31533 net.cpp:127] Top shape: 32 512 10 10 (1638400)
I0501 02:16:28.337888 31533 layer_factory.hpp:74] Creating layer conv4
I0501 02:16:28.337903 31533 net.cpp:90] Creating Layer conv4
I0501 02:16:28.337913 31533 net.cpp:410] conv4 <- conv3
I0501 02:16:28.337925 31533 net.cpp:368] conv4 -> conv4
I0501 02:16:28.337940 31533 net.cpp:120] Setting up conv4
I0501 02:16:28.585994 31533 net.cpp:127] Top shape: 32 1024 8 8 (2097152)
I0501 02:16:28.586029 31533 layer_factory.hpp:74] Creating layer relu4
I0501 02:16:28.586045 31533 net.cpp:90] Creating Layer relu4
I0501 02:16:28.586055 31533 net.cpp:410] relu4 <- conv4
I0501 02:16:28.586067 31533 net.cpp:357] relu4 -> conv4 (in-place)
I0501 02:16:28.586082 31533 net.cpp:120] Setting up relu4
I0501 02:16:28.586318 31533 net.cpp:127] Top shape: 32 1024 8 8 (2097152)
I0501 02:16:28.586331 31533 layer_factory.hpp:74] Creating layer conv5
I0501 02:16:28.586347 31533 net.cpp:90] Creating Layer conv5
I0501 02:16:28.586356 31533 net.cpp:410] conv5 <- conv4
I0501 02:16:28.586369 31533 net.cpp:368] conv5 -> conv5
I0501 02:16:28.586385 31533 net.cpp:120] Setting up conv5
I0501 02:16:28.772271 31533 net.cpp:127] Top shape: 32 384 6 6 (442368)
I0501 02:16:28.772308 31533 layer_factory.hpp:74] Creating layer relu5
I0501 02:16:28.772325 31533 net.cpp:90] Creating Layer relu5
I0501 02:16:28.772338 31533 net.cpp:410] relu5 <- conv5
I0501 02:16:28.772352 31533 net.cpp:357] relu5 -> conv5 (in-place)
I0501 02:16:28.772367 31533 net.cpp:120] Setting up relu5
I0501 02:16:28.772466 31533 net.cpp:127] Top shape: 32 384 6 6 (442368)
I0501 02:16:28.772478 31533 layer_factory.hpp:74] Creating layer pool5
I0501 02:16:28.772491 31533 net.cpp:90] Creating Layer pool5
I0501 02:16:28.772519 31533 net.cpp:410] pool5 <- conv5
I0501 02:16:28.772527 31533 net.cpp:368] pool5 -> pool5
I0501 02:16:28.772536 31533 net.cpp:120] Setting up pool5
I0501 02:16:28.772611 31533 net.cpp:127] Top shape: 32 384 3 3 (110592)
I0501 02:16:28.772620 31533 layer_factory.hpp:74] Creating layer fc6
I0501 02:16:28.772634 31533 net.cpp:90] Creating Layer fc6
I0501 02:16:28.772639 31533 net.cpp:410] fc6 <- pool5
I0501 02:16:28.772645 31533 net.cpp:368] fc6 -> fc6
I0501 02:16:28.772657 31533 net.cpp:120] Setting up fc6
I0501 02:16:28.805822 31533 net.cpp:127] Top shape: 32 256 (8192)
I0501 02:16:28.805855 31533 layer_factory.hpp:74] Creating layer relu6
I0501 02:16:28.805872 31533 net.cpp:90] Creating Layer relu6
I0501 02:16:28.805881 31533 net.cpp:410] relu6 <- fc6
I0501 02:16:28.805889 31533 net.cpp:357] relu6 -> fc6 (in-place)
I0501 02:16:28.805898 31533 net.cpp:120] Setting up relu6
I0501 02:16:28.806002 31533 net.cpp:127] Top shape: 32 256 (8192)
I0501 02:16:28.806011 31533 layer_factory.hpp:74] Creating layer drop6
I0501 02:16:28.806025 31533 net.cpp:90] Creating Layer drop6
I0501 02:16:28.806030 31533 net.cpp:410] drop6 <- fc6
I0501 02:16:28.806035 31533 net.cpp:357] drop6 -> fc6 (in-place)
I0501 02:16:28.806046 31533 net.cpp:120] Setting up drop6
I0501 02:16:28.806057 31533 net.cpp:127] Top shape: 32 256 (8192)
I0501 02:16:28.806062 31533 layer_factory.hpp:74] Creating layer fc7
I0501 02:16:28.806071 31533 net.cpp:90] Creating Layer fc7
I0501 02:16:28.806076 31533 net.cpp:410] fc7 <- fc6
I0501 02:16:28.806082 31533 net.cpp:368] fc7 -> fc7
I0501 02:16:28.806093 31533 net.cpp:120] Setting up fc7
I0501 02:16:28.806702 31533 net.cpp:127] Top shape: 32 64 (2048)
I0501 02:16:28.806712 31533 layer_factory.hpp:74] Creating layer relu7
I0501 02:16:28.806718 31533 net.cpp:90] Creating Layer relu7
I0501 02:16:28.806723 31533 net.cpp:410] relu7 <- fc7
I0501 02:16:28.806728 31533 net.cpp:357] relu7 -> fc7 (in-place)
I0501 02:16:28.806735 31533 net.cpp:120] Setting up relu7
I0501 02:16:28.807039 31533 net.cpp:127] Top shape: 32 64 (2048)
I0501 02:16:28.807050 31533 layer_factory.hpp:74] Creating layer drop7
I0501 02:16:28.807059 31533 net.cpp:90] Creating Layer drop7
I0501 02:16:28.807062 31533 net.cpp:410] drop7 <- fc7
I0501 02:16:28.807068 31533 net.cpp:357] drop7 -> fc7 (in-place)
I0501 02:16:28.807075 31533 net.cpp:120] Setting up drop7
I0501 02:16:28.807082 31533 net.cpp:127] Top shape: 32 64 (2048)
I0501 02:16:28.807087 31533 layer_factory.hpp:74] Creating layer fc8-ucf
I0501 02:16:28.807095 31533 net.cpp:90] Creating Layer fc8-ucf
I0501 02:16:28.807098 31533 net.cpp:410] fc8-ucf <- fc7
I0501 02:16:28.807106 31533 net.cpp:368] fc8-ucf -> fc8-ucf
I0501 02:16:28.807116 31533 net.cpp:120] Setting up fc8-ucf
I0501 02:16:28.807152 31533 net.cpp:127] Top shape: 32 10 (320)
I0501 02:16:28.807159 31533 layer_factory.hpp:74] Creating layer fc8-ucf_fc8-ucf_0_split
I0501 02:16:28.807165 31533 net.cpp:90] Creating Layer fc8-ucf_fc8-ucf_0_split
I0501 02:16:28.807170 31533 net.cpp:410] fc8-ucf_fc8-ucf_0_split <- fc8-ucf
I0501 02:16:28.807176 31533 net.cpp:368] fc8-ucf_fc8-ucf_0_split -> fc8-ucf_fc8-ucf_0_split_0
I0501 02:16:28.807183 31533 net.cpp:368] fc8-ucf_fc8-ucf_0_split -> fc8-ucf_fc8-ucf_0_split_1
I0501 02:16:28.807189 31533 net.cpp:120] Setting up fc8-ucf_fc8-ucf_0_split
I0501 02:16:28.807196 31533 net.cpp:127] Top shape: 32 10 (320)
I0501 02:16:28.807201 31533 net.cpp:127] Top shape: 32 10 (320)
I0501 02:16:28.807205 31533 layer_factory.hpp:74] Creating layer loss
I0501 02:16:28.807214 31533 net.cpp:90] Creating Layer loss
I0501 02:16:28.807219 31533 net.cpp:410] loss <- fc8-ucf_fc8-ucf_0_split_0
I0501 02:16:28.807224 31533 net.cpp:410] loss <- label_data_1_split_0
I0501 02:16:28.807230 31533 net.cpp:368] loss -> loss
I0501 02:16:28.807240 31533 net.cpp:120] Setting up loss
I0501 02:16:28.807250 31533 layer_factory.hpp:74] Creating layer loss
…
I0501 02:16:28.808249 31533 solver.cpp:154] Creating test net (#0) specified by net file: Acre/ac_train_test.prototxt
I0501 02:16:28.808295 31533 net.cpp:287] The NetState phase (1) differed from the phase (0) specified by a rule in layer data
I0501 02:16:28.808509 31533 net.cpp:42] Initializing net from parameters: 
name: "ac_re"
state {
  phase: TEST
}
layer {
  name: "data"
  type: "Data"
  top: "data"
  top: "label"
  include {
    phase: TEST
  }
  transform_param {
    mirror: false
    crop_size: 227
    mean_value: 103.939
  }
  data_param {
    source: "Acre/Acre_test_lmdb"
    batch_size: 64
    backend: LMDB
  }
}
layer {
  name: "conv1"
  type: "Convolution"
  bottom: "data"
  top: "conv1"
  param {
    lr_mult: 1
    decay_mult: 1
  }
  param {
    lr_mult: 2
    decay_mult: 0
  }
  convolution_param {
    num_output: 96
    kernel_size: 11
    stride: 2
    weight_filler {
      type: "gaussian"
      std: 0.01
    }
    bias_filler {
      type: "constant"
      value: 0.1
    }
  }
}
layer {
  name: "relu1"
  type: "ReLU"
  bottom: "conv1"
  top: "conv1"
}
layer {
  name: "pool1"
  type: "Pooling"
  bottom: "conv1"
  top: "pool1"
  pooling_param {
    pool: MAX
    kernel_size: 3
    stride: 2
  }
}
layer {
  name: "norm1"
  type: "LRN"
  bottom: "pool1"
  top: "norm1"
  lrn_param {
    local_size: 5
    alpha: 0.0001
    beta: 0.75
  }
}
layer {
  name: "conv2"
  type: "Convolution"
  bottom: "norm1"
  top: "conv2"
  param {
    lr_mult: 1
    decay_mult: 1
  }
  param {
    lr_mult: 2
    decay_mult: 0
  }
  convolution_param {
    num_output: 384
    kernel_size: 7
    group: 2
    stride: 2
    weight_filler {
      type: "gaussian"
      std: 0.01
    }
    bias_filler {
      type: "constant"
      value: 1
    }
  }
}
layer {
  name: "relu2"
  type: "ReLU"
  bottom: "conv2"
  top: "conv2"
}
layer {
  name: "pool2"
  type: "Pooling"
  bottom: "conv2"
  top: "pool2"
  pooling_param {
    pool: MAX
    kernel_size: 3
    stride: 2
  }
}
layer {
  name: "norm2"
  type: "LRN"
  bottom: "pool2"
  top: "norm2"
  lrn_param {
    local_size: 5
    alpha: 0.0001
    beta: 0.75
  }
}
layer {
  name: "conv3"
  type: "Convolution"
  bottom: "norm2"
  top: "conv3"
  param {
    lr_mult: 1
    decay_mult: 1
  }
  param {
    lr_mult: 2
    decay_mult: 0
  }
  convolution_param {
    num_output: 512
    pad: 1
    kernel_size: 5
    weight_filler {
      type: "gaussian"
      std: 0.01
    }
    bias_filler {
      type: "constant"
      value: 0.1
    }
  }
}
layer {
  name: "relu3"
  type: "ReLU"
  bottom: "conv3"
  top: "conv3"
}
layer {
  name: "conv4"
  type: "Convolution"
  bottom: "conv3"
  top: "conv4"
  param {
    lr_mult: 1
    decay_mult: 1
  }
  param {
    lr_mult: 2
    decay_mult: 0
  }
  convolution_param {
    num_output: 1024
    pad: 1
    kernel_size: 5
    group: 2
    weight_filler {
      type: "gaussian"
      std: 0.01
    }
    bias_filler {
      type: "constant"
      value: 0.1
    }
  }
}
layer {
  name: "relu4"
  type: "ReLU"
  bottom: "conv4"
  top: "conv4"
}
layer {
  name: "conv5"
  type: "Convolution"
  bottom: "conv4"
  top: "conv5"
  param {
    lr_mult: 1
    decay_mult: 1
  }
  param {
    lr_mult: 2
    decay_mult: 0
  }
  convolution_param {
    num_output: 384
    pad: 1
    kernel_size: 5
    group: 2
    weight_filler {
      type: "gaussian"
      std: 0.01
    }
    bias_filler {
      type: "constant"
      value: 0.1
    }
  }
}
layer {
  name: "relu5"
  type: "ReLU"
  bottom: "conv5"
  top: "conv5"
}
layer {
  name: "pool5"
  type: "Pooling"
  bottom: "conv5"
  top: "pool5"
  pooling_param {
    pool: MAX
    kernel_size: 3
    stride: 2
  }
}
layer {
  name: "fc6"
  type: "InnerProduct"
  bottom: "pool5"
  top: "fc6"
  param {
    lr_mult: 1
    decay_mult: 1
  }
  param {
    lr_mult: 2
    decay_mult: 0
  }
  inner_product_param {
    num_output: 256
    weight_filler {
      type: "gaussian"
      std: 0.01
    }
    bias_filler {
      type: "constant"
      value: 0.1
    }
  }
}
layer {
  name: "relu6"
  type: "ReLU"
  bottom: "fc6"
  top: "fc6"
}
layer {
  name: "drop6"
  type: "Dropout"
  bottom: "fc6"
  top: "fc6"
  dropout_param {
    dropout_ratio: 0.5
  }
}
layer {
  name: "fc7"
  type: "InnerProduct"
  bottom: "fc6"
  top: "fc7"
  param {
    lr_mult: 1
    decay_mult: 1
  }
  param {
    lr_mult: 2
    decay_mult: 0
  }
  inner_product_param {
    num_output: 64
    weight_filler {
      type: "gaussian"
      std: 0.01
    }
    bias_filler {
      type: "constant"
      value: 0.1
    }
  }
}
layer {
  name: "relu7"
  type: "ReLU"
  bottom: "fc7"
  top: "fc7"
}
layer {
  name: "drop7"
  type: "Dropout"
  bottom: "fc7"
  top: "fc7"
  dropout_param {
    dropout_ratio: 0.5
  }
}
layer {
  name: "fc8-ucf"
  type: "InnerProduct"
  bottom: "fc7"
  top: "fc8-ucf"
  param {
    lr_mult: 10
    decay_mult: 1
  }
  param {
    lr_mult: 20
    decay_mult: 0
  }
  inner_product_param {
    num_output: 10
    weight_filler {
      type: "gaussian"
      std: 0.01
    }
    bias_filler {
      type: "constant"
      value: 0
    }
  }
}
layer {
  name: "loss"
  type: "SoftmaxWithLoss"
  bottom: "fc8-ucf"
  bottom: "label"
  top: "loss"
}
layer {
  name: "accuracy"
  type: "Accuracy"
  bottom: "fc8-ucf"
  bottom: "label"
  top: "accuracy"
}
I0501 02:16:28.808626 31533 layer_factory.hpp:74] Creating layer data
I0501 02:16:28.808648 31533 net.cpp:90] Creating Layer data
I0501 02:16:28.808655 31533 net.cpp:368] data -> data
I0501 02:16:28.808665 31533 net.cpp:368] data -> label
I0501 02:16:28.808673 31533 net.cpp:120] Setting up data
I0501 02:16:28.834559 31533 db_lmdb.cpp:22] Opened lmdb Acre/Acre_test_lmdb
I0501 02:16:29.067945 31533 data_layer.cpp:52] output data size: 64,18,227,227
I0501 02:16:29.283776 31533 net.cpp:127] Top shape: 64 18 227 227 (59361408)
I0501 02:16:29.283804 31533 net.cpp:127] Top shape: 64 (64)
I0501 02:16:29.283812 31533 layer_factory.hpp:74] Creating layer label_data_1_split
I0501 02:16:29.283828 31533 net.cpp:90] Creating Layer label_data_1_split
I0501 02:16:29.283834 31533 net.cpp:410] label_data_1_split <- label
I0501 02:16:29.283845 31533 net.cpp:368] label_data_1_split -> label_data_1_split_0
I0501 02:16:29.283859 31533 net.cpp:368] label_data_1_split -> label_data_1_split_1
I0501 02:16:29.283866 31533 net.cpp:120] Setting up label_data_1_split
I0501 02:16:29.283879 31533 net.cpp:127] Top shape: 64 (64)
I0501 02:16:29.283884 31533 net.cpp:127] Top shape: 64 (64)
I0501 02:16:29.283887 31533 layer_factory.hpp:74] Creating layer conv1
I0501 02:16:29.283905 31533 net.cpp:90] Creating Layer conv1
I0501 02:16:29.283908 31533 net.cpp:410] conv1 <- data
I0501 02:16:29.283915 31533 net.cpp:368] conv1 -> conv1
I0501 02:16:29.283924 31533 net.cpp:120] Setting up conv1
I0501 02:16:29.292320 31533 net.cpp:127] Top shape: 64 96 109 109 (72996864)
I0501 02:16:29.292348 31533 layer_factory.hpp:74] Creating layer relu1
I0501 02:16:29.292361 31533 net.cpp:90] Creating Layer relu1
I0501 02:16:29.292366 31533 net.cpp:410] relu1 <- conv1
I0501 02:16:29.292373 31533 net.cpp:357] relu1 -> conv1 (in-place)
I0501 02:16:29.292382 31533 net.cpp:120] Setting up relu1
I0501 02:16:29.292462 31533 net.cpp:127] Top shape: 64 96 109 109 (72996864)
I0501 02:16:29.292476 31533 layer_factory.hpp:74] Creating layer pool1
I0501 02:16:29.292492 31533 net.cpp:90] Creating Layer pool1
I0501 02:16:29.292497 31533 net.cpp:410] pool1 <- conv1
I0501 02:16:29.292503 31533 net.cpp:368] pool1 -> pool1
I0501 02:16:29.292511 31533 net.cpp:120] Setting up pool1
I0501 02:16:29.292592 31533 net.cpp:127] Top shape: 64 96 54 54 (17915904)
I0501 02:16:29.292600 31533 layer_factory.hpp:74] Creating layer norm1
I0501 02:16:29.292608 31533 net.cpp:90] Creating Layer norm1
I0501 02:16:29.292613 31533 net.cpp:410] norm1 <- pool1
I0501 02:16:29.292618 31533 net.cpp:368] norm1 -> norm1
I0501 02:16:29.292625 31533 net.cpp:120] Setting up norm1
I0501 02:16:29.292634 31533 net.cpp:127] Top shape: 64 96 54 54 (17915904)
I0501 02:16:29.292637 31533 layer_factory.hpp:74] Creating layer conv2
I0501 02:16:29.292645 31533 net.cpp:90] Creating Layer conv2
I0501 02:16:29.292650 31533 net.cpp:410] conv2 <- norm1
I0501 02:16:29.292656 31533 net.cpp:368] conv2 -> conv2
I0501 02:16:29.292664 31533 net.cpp:120] Setting up conv2
I0501 02:16:29.327458 31533 net.cpp:127] Top shape: 64 384 24 24 (14155776)
I0501 02:16:29.327493 31533 layer_factory.hpp:74] Creating layer relu2
I0501 02:16:29.327505 31533 net.cpp:90] Creating Layer relu2
I0501 02:16:29.327512 31533 net.cpp:410] relu2 <- conv2
I0501 02:16:29.327519 31533 net.cpp:357] relu2 -> conv2 (in-place)
I0501 02:16:29.327529 31533 net.cpp:120] Setting up relu2
I0501 02:16:29.327749 31533 net.cpp:127] Top shape: 64 384 24 24 (14155776)
I0501 02:16:29.327760 31533 layer_factory.hpp:74] Creating layer pool2
I0501 02:16:29.327772 31533 net.cpp:90] Creating Layer pool2
I0501 02:16:29.327776 31533 net.cpp:410] pool2 <- conv2
I0501 02:16:29.327783 31533 net.cpp:368] pool2 -> pool2
I0501 02:16:29.327792 31533 net.cpp:120] Setting up pool2
I0501 02:16:29.327867 31533 net.cpp:127] Top shape: 64 384 12 12 (3538944)
I0501 02:16:29.327875 31533 layer_factory.hpp:74] Creating layer norm2
I0501 02:16:29.327883 31533 net.cpp:90] Creating Layer norm2
I0501 02:16:29.327888 31533 net.cpp:410] norm2 <- pool2
I0501 02:16:29.327894 31533 net.cpp:368] norm2 -> norm2
I0501 02:16:29.327901 31533 net.cpp:120] Setting up norm2
I0501 02:16:29.327934 31533 net.cpp:127] Top shape: 64 384 12 12 (3538944)
I0501 02:16:29.327939 31533 layer_factory.hpp:74] Creating layer conv3
I0501 02:16:29.327949 31533 net.cpp:90] Creating Layer conv3
I0501 02:16:29.327952 31533 net.cpp:410] conv3 <- norm2
I0501 02:16:29.327960 31533 net.cpp:368] conv3 -> conv3
I0501 02:16:29.327966 31533 net.cpp:120] Setting up conv3
I0501 02:16:29.513734 31533 net.cpp:127] Top shape: 64 512 10 10 (3276800)
I0501 02:16:29.513767 31533 layer_factory.hpp:74] Creating layer relu3
I0501 02:16:29.513779 31533 net.cpp:90] Creating Layer relu3
I0501 02:16:29.513785 31533 net.cpp:410] relu3 <- conv3
I0501 02:16:29.513793 31533 net.cpp:357] relu3 -> conv3 (in-place)
I0501 02:16:29.513803 31533 net.cpp:120] Setting up relu3
I0501 02:16:29.513875 31533 net.cpp:127] Top shape: 64 512 10 10 (3276800)
I0501 02:16:29.513881 31533 layer_factory.hpp:74] Creating layer conv4
I0501 02:16:29.513890 31533 net.cpp:90] Creating Layer conv4
I0501 02:16:29.513895 31533 net.cpp:410] conv4 <- conv3
I0501 02:16:29.513901 31533 net.cpp:368] conv4 -> conv4
I0501 02:16:29.513909 31533 net.cpp:120] Setting up conv4
I0501 02:16:29.761443 31533 net.cpp:127] Top shape: 64 1024 8 8 (4194304)
I0501 02:16:29.761474 31533 layer_factory.hpp:74] Creating layer relu4
I0501 02:16:29.761487 31533 net.cpp:90] Creating Layer relu4
I0501 02:16:29.761492 31533 net.cpp:410] relu4 <- conv4
I0501 02:16:29.761502 31533 net.cpp:357] relu4 -> conv4 (in-place)
I0501 02:16:29.761510 31533 net.cpp:120] Setting up relu4
I0501 02:16:29.761730 31533 net.cpp:127] Top shape: 64 1024 8 8 (4194304)
I0501 02:16:29.761742 31533 layer_factory.hpp:74] Creating layer conv5
I0501 02:16:29.761754 31533 net.cpp:90] Creating Layer conv5
I0501 02:16:29.761759 31533 net.cpp:410] conv5 <- conv4
I0501 02:16:29.761766 31533 net.cpp:368] conv5 -> conv5
I0501 02:16:29.761775 31533 net.cpp:120] Setting up conv5
I0501 02:16:30.029533 31533 net.cpp:127] Top shape: 64 384 6 6 (884736)
I0501 02:16:30.029570 31533 layer_factory.hpp:74] Creating layer relu5
I0501 02:16:30.029583 31533 net.cpp:90] Creating Layer relu5
I0501 02:16:30.029589 31533 net.cpp:410] relu5 <- conv5
I0501 02:16:30.029598 31533 net.cpp:357] relu5 -> conv5 (in-place)
I0501 02:16:30.029608 31533 net.cpp:120] Setting up relu5
I0501 02:16:30.029680 31533 net.cpp:127] Top shape: 64 384 6 6 (884736)
I0501 02:16:30.029690 31533 layer_factory.hpp:74] Creating layer pool5
I0501 02:16:30.029701 31533 net.cpp:90] Creating Layer pool5
I0501 02:16:30.029706 31533 net.cpp:410] pool5 <- conv5
I0501 02:16:30.029712 31533 net.cpp:368] pool5 -> pool5
I0501 02:16:30.029721 31533 net.cpp:120] Setting up pool5
I0501 02:16:30.029795 31533 net.cpp:127] Top shape: 64 384 3 3 (221184)
I0501 02:16:30.029803 31533 layer_factory.hpp:74] Creating layer fc6
I0501 02:16:30.029813 31533 net.cpp:90] Creating Layer fc6
I0501 02:16:30.029817 31533 net.cpp:410] fc6 <- pool5
I0501 02:16:30.029824 31533 net.cpp:368] fc6 -> fc6
I0501 02:16:30.029832 31533 net.cpp:120] Setting up fc6
I0501 02:16:30.063237 31533 net.cpp:127] Top shape: 64 256 (16384)
I0501 02:16:30.063266 31533 layer_factory.hpp:74] Creating layer relu6
I0501 02:16:30.063277 31533 net.cpp:90] Creating Layer relu6
I0501 02:16:30.063284 31533 net.cpp:410] relu6 <- fc6
I0501 02:16:30.063292 31533 net.cpp:357] relu6 -> fc6 (in-place)
I0501 02:16:30.063302 31533 net.cpp:120] Setting up relu6
I0501 02:16:30.063411 31533 net.cpp:127] Top shape: 64 256 (16384)
I0501 02:16:30.063421 31533 layer_factory.hpp:74] Creating layer drop6
I0501 02:16:30.063431 31533 net.cpp:90] Creating Layer drop6
I0501 02:16:30.063434 31533 net.cpp:410] drop6 <- fc6
I0501 02:16:30.063441 31533 net.cpp:357] drop6 -> fc6 (in-place)
I0501 02:16:30.063447 31533 net.cpp:120] Setting up drop6
I0501 02:16:30.063455 31533 net.cpp:127] Top shape: 64 256 (16384)
I0501 02:16:30.063459 31533 layer_factory.hpp:74] Creating layer fc7
I0501 02:16:30.063468 31533 net.cpp:90] Creating Layer fc7
I0501 02:16:30.063472 31533 net.cpp:410] fc7 <- fc6
I0501 02:16:30.063479 31533 net.cpp:368] fc7 -> fc7
I0501 02:16:30.063513 31533 net.cpp:120] Setting up fc7
I0501 02:16:30.064157 31533 net.cpp:127] Top shape: 64 64 (4096)
I0501 02:16:30.064178 31533 layer_factory.hpp:74] Creating layer relu7
I0501 02:16:30.064188 31533 net.cpp:90] Creating Layer relu7
I0501 02:16:30.064193 31533 net.cpp:410] relu7 <- fc7
I0501 02:16:30.064201 31533 net.cpp:357] relu7 -> fc7 (in-place)
I0501 02:16:30.064210 31533 net.cpp:120] Setting up relu7
I0501 02:16:30.064638 31533 net.cpp:127] Top shape: 64 64 (4096)
I0501 02:16:30.064653 31533 layer_factory.hpp:74] Creating layer drop7
I0501 02:16:30.064663 31533 net.cpp:90] Creating Layer drop7
I0501 02:16:30.064667 31533 net.cpp:410] drop7 <- fc7
I0501 02:16:30.064676 31533 net.cpp:357] drop7 -> fc7 (in-place)
I0501 02:16:30.064683 31533 net.cpp:120] Setting up drop7
I0501 02:16:30.064692 31533 net.cpp:127] Top shape: 64 64 (4096)
I0501 02:16:30.064697 31533 layer_factory.hpp:74] Creating layer fc8-ucf
I0501 02:16:30.064704 31533 net.cpp:90] Creating Layer fc8-ucf
I0501 02:16:30.064709 31533 net.cpp:410] fc8-ucf <- fc7
I0501 02:16:30.064716 31533 net.cpp:368] fc8-ucf -> fc8-ucf
I0501 02:16:30.064730 31533 net.cpp:120] Setting up fc8-ucf
I0501 02:16:30.064781 31533 net.cpp:127] Top shape: 64 10 (640)
I0501 02:16:30.064791 31533 layer_factory.hpp:74] Creating layer fc8-ucf_fc8-ucf_0_split
I0501 02:16:30.064800 31533 net.cpp:90] Creating Layer fc8-ucf_fc8-ucf_0_split
I0501 02:16:30.064805 31533 net.cpp:410] fc8-ucf_fc8-ucf_0_split <- fc8-ucf
I0501 02:16:30.064811 31533 net.cpp:368] fc8-ucf_fc8-ucf_0_split -> fc8-ucf_fc8-ucf_0_split_0
I0501 02:16:30.064820 31533 net.cpp:368] fc8-ucf_fc8-ucf_0_split -> fc8-ucf_fc8-ucf_0_split_1
I0501 02:16:30.064826 31533 net.cpp:120] Setting up fc8-ucf_fc8-ucf_0_split
I0501 02:16:30.064833 31533 net.cpp:127] Top shape: 64 10 (640)
I0501 02:16:30.064838 31533 net.cpp:127] Top shape: 64 10 (640)
I0501 02:16:30.064843 31533 layer_factory.hpp:74] Creating layer loss
I0501 02:16:30.064851 31533 net.cpp:90] Creating Layer loss
I0501 02:16:30.064854 31533 net.cpp:410] loss <- fc8-ucf_fc8-ucf_0_split_0
I0501 02:16:30.064859 31533 net.cpp:410] loss <- label_data_1_split_0
I0501 02:16:30.064865 31533 net.cpp:368] loss -> loss
I0501 02:16:30.064873 31533 net.cpp:120] Setting up loss
I0501 02:16:30.064882 31533 layer_factory.hpp:74] Creating layer loss
…
